MetaDrive-PPO-Agent/testing_experiments/ppo_critic_exp6.pth (torch, 202392 bytes, 5 tensors)

fc1.weight f4 [128, 259]
-0.01779826 0.015961675 -0.014307563 0.051236253 0.04995672 0.048843853 0.048190642 -0.0031169637
0.036395635 -0.04889712 0.023080107 0.04193102 0.052101288 0.049058985 0.046903417 0.026033798
-0.006367661 0.048781034 0.033563968 -0.03474477 0.056617003 0.028902184 -0.04979901 -0.061384536
-0.056921367 -0.053569358 0.0032018898 -0.052710667 -0.048875164 0.038890276 0.055032667 -0.001849032
0.03779259 0.059511915 0.05961893 -0.012699067 -0.010234823 0.0058951085 -0.021159953 -0.03123124
-0.04448067 0.029949145 0.06137263 -0.023576777 0.033705883 0.023047961 0.03508399 -0.033396848
0.058626324 -0.029664252 -0.010612498 0.038623344 -0.044189494 0.054053996 -0.05607122 0.0050533405
0.027180701 0.0036672102 0.04038684 -0.022448927 -0.054281108 0.036916077 -0.047300894 -0.062303737
-0.0052688457 0.013206975 -0.056387056 0.010974115 -0.015416993 -0.027158288 -0.0024581992 0.009670635
0.047456726 0.0021861196 -0.049741436 0.04308349 0.02489002 0.042919204 0.050042313 -0.038343422
0.026754165 0.020923713 -0.025053471 0.040025447 0.018222187 -0.03427114 -0.035433937 -0.04353331
0.024122553 0.017779 -0.03378416 -0.059923373 -0.023408614 -0.0620291 0.014850095 -0.049037214
0.005026461 -0.060764715 0.044858154 0.043692563 -0.053943556 -0.057492845 -0.017297197 0.04596685
0.021117399 0.013889002 0.0012746387 0.003302241 0.039650057 0.053607143 -0.0067818537 -0.004470533
-0.05535949 0.05003563 0.03301828 -0.010230244 0.05281162 0.050556395 -0.0539302 -0.045857966
0.037346836 -0.007400637 -0.053691577 0.02218827 0.029108865 -0.053996485 -0.039012656 -0.04693226
0.029684827 0.057968307 -0.030340595 -0.056774285 0.043766014 0.0012670667 0.025927182 -0.038376786
-0.013335804 0.012140523 -0.015396606 -0.024408652 -0.048293054 -0.04145668 -0.024793573 -0.025543498
0.051138684 -0.052020025 -0.009464954 0.006674918 -0.0087241465 -0.019097015 0.03830243 0.0072561656
0.025322266 0.021804128 0.0072905747 0.031172954 0.043328326 -0.04907813 -0.061774954 -0.0314255
0.053864837 0.028878648 -0.0406068 -0.057107516 0.03168813 0.0053128744 0.037328526 0.015202338
0.011249066 0.030969817 0.06145976 0.0078951 0.050330944 0.012728925 0.0026504034 0.030967597
-0.0026171615 -0.00804118 -0.009240001 -0.017636536 -0.017507477 0.0109213935 0.0019338091 0.05667518
-0.035078287 -0.03471777 -0.05342994 -0.05979933 -0.037038095 -0.023828136 0.03373905 0.02573082
0.013848164 -0.016498638 0.04912764 -0.016452901 0.058020674 -0.015241716 0.038410623 0.056296498
-0.021751191 0.05289705 0.013646363 -0.00950464 -0.013054041 -0.026746854 0.03666787 -0.008297549
-0.012337044 0.052640695 0.000716284 0.02530023 0.017369207 0.05639229 0.04157549 0.016145006
-0.056235217 0.053085748 0.040432177 0.029162312 0.04466273 0.032826588 -0.02411288 -0.006842318
-0.018513655 -0.005858818 0.030464713 -0.046224598 -0.009859775 -0.04351233 -0.005292369 -0.014176107
-0.040397264 0.019108184 0.033496432 0.01578231 -0.013083801 0.032013457 -0.024021711 -0.04960809
-0.035947815 -0.008154381 -0.048160028 -0.0023143992 0.054873206 0.03705998 0.018899614 0.056529313
-0.042534105 -0.018273866 0.048665732 -0.046556816 0.0033697993 -0.02681188 -0.05714355 -0.015169893
00000000: a8cd 91bc 0fc2 823c 456a 6abc 1bdd 513d
00000010: 6b9f 4c3d 7e10 483d 8d63 453d f945 4cbb
00000020: 9713 153d 5948 48bd 7e12 bd3c dcbf 2b3d
00000030: 2968 553d 13f2 483d cc1d 403d d544 d53c
00000040: d0a7 d0bb 9fce 473d 5f7a 093d 8850 0ebd
00000050: 3be7 673d 46c4 ec3c 0cfa 4bbd 5a6e 7bbd
00000060: 6126 69bd 8b6b 5bbd ccd6 513b 24e7 57bd
00000070: 5331 48bd 694b 1f3d ef69 613d 385b f2ba
00000080: 67cc 1a3d c4c2 733d fb32 743d bf0f 50bc
00000090: f6af 27bc c12b c13b a357 adbc a8d8 ffbc
000000a0: 5d31 36bd e957 f53c de61 7b3d 1624 c1bc
000000b0: 2e0f 0a3d 14cf bc3c 3bb4 0f3d 22cb 08bd
000000c0: 2822 703d 7202 f3bc 0be0 2dbc 8333 1e3d
000000d0: 0b00 35bd b967 5d3d f0aa 65bd 7e96 a53b
000000e0: 10aa de3c 9455 703b ac6c 253d d0e6 b7bc
000000f0: de55 5ebd 5035 173d 95be 41bd 3432 7fbd
00000100: 48a6 acbb 1162 583c 1df6 66bd c6cc 333c
00000110: 8e97 7cbc 0f7b debc bd19 21bb 9571 1e3c
00000120: fc61 423d 0045 0f3b adbd 4bbd 5078 303d
00000130: 28e6 cb3c 0ccc 2f3d 2bf9 4c3d fe0d 1dbd
00000140: 8d2b db3c 3568 ab3c f03c cdbc b9f1 233d
00000150: b246 953c e55f 0cbd 2d23 11bd fc4f 32bd
00000160: a99c c53c 44a5 913c 4261 0abd 3672 75bd
00000170: 6cc3 bfbc 3a12 7ebd d04d 733c 3fdb 48bd
00000180: 03b5 a43b 6ce4 78bd 2fbd 373d f9f6 323d
00000190: ebf3 5cbd 9e7d 6bbd dab2 8dbc bc47 3c3d
000001a0: 65fe ac3c b28e 633c c711 a73a 696a 583b
000001b0: 1968 223d 2a93 5b3d 503a debb 8d7d 92bb
000001c0: a2c0 62bd 29f2 4c3d 2d3e 073d c19c 27bc
000001d0: ff50 583d 3914 4f3d eae5 5cbd 90d5 3bbd
000001e0: fff8 183d 0b81 f2bb b3eb 5bbd 2dc4 b53c
000001f0: b775 ee3c 6b2b 5dbd bccb 1fbd 0b3c 40bd
00000200: 982d f33c 2d70 6d3d d78c f8bc 278c 68bd
00000210: fe43 333d b413 a63a 3e65 d43c fa30 1dbd
00000220: 6b7e 5abc 0be9 463c 0c42 7cbc a7f4 c7bc
00000230: f0ce 45bd 7bce 29bd e41b cbbc 9940 d1bc
00000240: cc76 513d f312 55bd e512 1bbc 45b9 da3b
00000250: b9ef 0ebc 5871 9cbc 02e3 1c3d 21c5 ed3b
00000260: a470 cf3c 929e b23c c6e5 ee3b 6c5e ff3c
00000270: 0b79 313d 2606 49bd bc07 7dbd 06b8 00bd
00000280: 60a1 5c3d ea92 ec3c 5153 26bd 92e9 69bd
00000290: 6acb 013d 9f17 ae3b cce5 183d 3a13 793c
000002a0: 014e 383c 6ab4 fd3c 3bbd 7b3d 735a 013c
000002b0: d227 4e3d fb8c 503c 64b2 2d3b c2af fd3c
000002c0: af84 2bbb 27bf 03bc 6063 17bc 7f7a 90bc
000002d0: d76b 8fbc a5ef 323c de77 fd3a 3c24 683d
000002e0: 40ae 0fbd 3834 0ebd 5ad9 5abd 24f0 74bd
000002f0: 42b5 17bd 3933 c3bc f531 0a3d 71c9 d23c
00000300: 69e3 623c 2728 87bc 103a 493d 3cc8 86bc
00000310: 16a7 6d3d 64b8 79bc 7554 1d3d 2897 663d
00000320: 8e2f b2bc 94aa 583d ff94 5f3c 59b9 1bbc
00000330: 9ee0 55bc 381c dbbc 0c31 163d 71f2 07bc
00000340: 5021 4abc c59d 573d 01c5 3b3a 6e42 cf3c
00000350: de49 8e3c 9afb 663d 104b 2a3d 8842 843c
00000360: e656 66bd 7170 593d 369c 253d cde5 ee3c
00000370: 44f0 363d 2c75 063d 6088 c5bc 8635 e0bb
00000380: f3a9 97bc 54fb bfbb 2291 f93c 0156 3dbd
00000390: e58a 21bc fc39 32bd 9c6b adbb e742 68bc
000003a0: 9a77 25bd c488 9c3c 8e33 093d e749 813c
000003b0: 705d 56bc 8b20 033d 2ec9 c4bc da31 4bbd
000003c0: 043e 13bd f499 05bc 7343 45bd 2dad 17bb
000003d0: bac2 603d 35cc 173d 5dd3 9a3c 488b 673d
000003e0: 3e38 2ebd 13b3 95bc b855 473d 5cb2 3ebd
000003f0: dad7 5c3b 96a4 dbbc 5b0f 6abd 258b 78bc

fc1.bias f4 [128]
0.013318408 0.0049451976 -0.049564086 0.051652573 0.04549337 -0.06108495 0.0032223668 0.05631733
0.056637786 0.059463907 -0.0410321 -0.06196556 0.0033657064 0.025576409 -0.0003217089 -0.054927863
0.016460143 0.0256463 -0.01719905 0.04448239 -0.05613796 -0.021665093 -0.012753294 -0.057189513
0.009298102 0.011578639 -0.055709805 -0.007270069 0.050121315 0.015793035 -0.02647158 -0.02901343
-0.04253189 -0.044763044 -0.022131167 -0.0319847 0.01105455 0.009328281 -0.049422357 -0.05239109
0.009547584 0.035544105 0.061671875 0.051016733 0.0408248 0.0022044098 -0.03461224 -0.055355005
0.02152241 0.042085577 0.03648965 -0.04988197 -0.051554825 0.035142645 0.03575101 -0.015915096
-0.0038142116 0.053951874 0.018911667 -0.042109575 0.03395959 -0.06082302 0.05510484 -0.011494173
-0.017971333 0.02591437 0.01091636 -0.0014779866 0.04637686 0.03667294 -0.04758903 -0.050427444
0.02516445 -0.05123031 0.055684254 0.05977678 -0.015417864 -0.037238628 -0.03320546 -0.058528077
-0.043634105 -0.014733285 -0.021430839 -0.0502252 -0.0281024 -0.0016957782 -0.05782389 0.030636897
0.011598334 -0.01576722 0.028204419 0.05532866 0.035637107 0.028382394 -0.04635995 -0.052657925
0.03572008 0.020117434 -0.01703493 -0.06100406 -0.007784411 0.047235914 0.00657385 0.0010843575
0.060134325 0.030853484 0.059208687 -0.038368583 -0.0127864815 -0.040232435 1.0558288e-06 0.014635138
-0.010207176 -0.03422685 0.015867079 -0.063169055 0.03715961 -0.014464798 0.0005915314 0.04142166
-0.057786092 0.04425997 -0.055954214 -0.05689381 -0.057236023 0.030544247 0.005275531 0.024896229
00000000: 7435 5a3c 530b a23b b603 4bbd a691 533d
00000010: 4257 3a3d 3634 7abd 582e 533b 00ad 663d
00000020: 06fd 673d 6d90 733d 4611 28bd 99cf 7dbd
00000030: 2f93 5c3b 9e85 d13c 0aab a8b9 0afc 60bd
00000040: 6cd7 863c 3018 d23c 06e5 8cbc 2b33 363d
00000050: ebf0 65bd fe7a b1bc 31f3 50bc 8d3f 6abd
00000060: 1157 183c 55b4 3d3c f72f 64bd c239 eebb
00000070: 024c 4d3d 6560 813c edda d8bc 93ad edbc
00000080: eb35 2ebd 7459 37bd 6c4c b5bc 6402 03bd
00000090: 251e 353c a5d5 183c 196f 4abd 0a98 56bd
000000a0: 786d 1c3c b296 113d a69b 7c3d ecf6 503d
000000b0: e837 273d dc77 103b 90c5 0dbd eebb 62bd
000000c0: c44f b03c ed61 2c3d 2c76 153d 0951 4cbd
000000d0: 272b 53bd bcf1 0f3d a76f 123d 6060 82bc
000000e0: daf7 79bb a4fc 5c3d a4ec 9a3c 177b 2cbd
000000f0: 3619 0b3d 8f21 79bd 9db5 613d 0e52 3cbc
00000100: 9e38 93bc 5f4a d43c 88da 323c 00b9 c1ba
00000110: aaf5 3d3d 5d36 163d b7ec 42bd 028d 4ebd
00000120: ad25 ce3c e0d6 51bd 2c15 643d 7fd8 743d
00000130: 359b 7cbc 8887 18bd 7302 08bd 23bb 6fbd
00000140: adb9 32bd e063 71bc ba8f afbc f0b8 4dbd
00000150: 0137 e6bc e044 deba bed8 6cbd 3bfa fa3c
00000160: f006 3e3c 422a 81bc f40c e73c 4ea0 623d
00000170: 37f8 113d 3282 e83c eee3 3dbd d6af 57bd
00000180: 384f 123d 51cd a43c d68c 8bbc 65df 79bd
00000190: 5f14 ffbb 727a 413d 7369 d73b 0021 8e3a
000001a0: 694f 763d 72c0 fc3c cf84 723d 6028 1dbd
000001b0: 647e 51bc c4ca 24bd 00b6 8d35 38c8 6f3c
000001c0: 003c 27bc 7431 0cbd adfb 813c c75e 81bd
000001d0: ad34 183d c3fd 6cbc 0011 1b3a c2a9 293d
000001e0: 1cb1 6cbd f149 353d 3f30 65bd 7c09 69bd
000001f0: 5270 6abd ee37 fa3c 5dde ac3b 2df3 cb3c

fc2.weight f4 [128, 128]
-0.014609457 -0.03141434 0.025318235 0.0794112 -0.03708808 -0.060680956 -0.03408783 -0.04000886
-0.059652247 -0.062584236 -0.008060065 0.06602942 -0.06115777 0.054467842 0.073600836 0.010223067
0.07291377 -0.023692302 0.07607093 -0.07098571 0.0029040498 0.023246251 -0.04497412 -0.0034763664
0.06115532 0.03351403 0.07038731 -0.029978206 -0.07976255 -0.052206643 -0.022923287 0.022580458
-0.07556617 0.041159593 -0.03423255 -0.057879534 -0.073355235 -0.05546797 0.065634035 0.0739087
0.07725633 0.032900017 -0.067066096 -0.08081717 -0.034557857 -0.0053415378 0.059541136 0.043776017
-0.08367457 0.038489453 -0.038424544 -0.087730326 -0.015638366 -0.027242465 -0.011741424 -0.017823867
0.048413664 -0.07170743 -0.008675009 0.01805707 0.035159335 -0.04626741 0.058185678 0.053858213
0.027104236 -0.05491072 0.05361464 -0.030800704 0.082858 -0.051252358 -0.047800407 -0.05998333
-0.05318268 0.0192026 0.026467603 0.037135746 -0.017930808 0.067305855 -0.007670986 0.06592384
-0.034914497 0.050363656 0.0294227 0.001296612 -0.0064086933 0.07627713 -0.010578278 -0.025823474
-0.06547882 0.005701266 -0.005522661 0.069705226 0.028776027 0.046056546 0.07377527 0.02215232
0.040234413 0.054956302 0.049077712 0.08404038 -0.0019288175 -0.08742171 -0.05639589 -0.052846204
0.016146928 -0.047943413 -0.0033943695 -0.061592087 -0.07924402 -0.07593816 -0.019756295 -0.037614238
0.022150442 0.07337814 -0.041882858 0.023090236 -0.07809694 0.039474133 -0.022664823 -0.01859419
-0.056101874 0.041519765 -0.06510609 -0.0545146 -0.045660008 0.02532696 0.019494954 -0.08827777
0.03699241 0.07056909 0.043656953 0.06464078 0.059218027 0.039324634 0.06455197 -0.068518415
0.08054247 -0.04522044 -0.010191403 -0.04247867 -0.080062486 0.04245361 0.034161694 0.04669463
0.027581342 -0.011759378 -0.030676764 -0.0001705885 0.07492504 -0.00060883164 0.06460237 -0.009954527
0.005964361 0.027069889 0.06337362 -0.06638823 -0.036595896 -0.007894181 -0.016508594 -0.0791893
-0.049976613 0.018760197 -0.05917587 0.06552293 0.038642056 -0.02932448 0.07114532 -0.02283588
-0.012007423 -0.07123932 -0.08307012 -0.08023838 0.010696501 -0.0541336 0.08612836 0.06199839
-0.010964595 -0.027519986 -0.0408822 -0.06216817 0.08790357 -0.05795356 -0.0016384199 -0.04253031
-0.07459603 0.06373369 -0.030444216 0.021825954 0.03593137 0.027842917 -0.06326351 -0.07909798
0.04428891 -0.016117103 0.05769118 -0.010704152 -0.0528844 1.5616417e-05 -0.042675126 0.017792135
0.0007925257 0.040562578 -0.025391445 -0.031438924 -0.049207214 0.052449726 0.02743993 -0.016578928
-0.072967805 -0.043867555 -0.08412684 0.081761874 0.0025358945 0.023000933 -0.0081759915 -0.037603587
0.08648842 -0.0161023 -0.0050786436 -0.03966226 0.032938078 0.030494384 -0.041387457 -0.050042585
-0.0652545 -0.08282257 0.053364195 -0.020419493 -0.08802369 0.05975551 -0.0034495592 0.077611454
-0.07388729 -0.022143953 -0.017898552 0.0440171 -0.0853502 0.07144312 -0.025719829 -0.01892291
-0.040617477 -0.024696663 0.07072025 -0.08705312 0.047478862 -0.028842814 0.07045146 0.045693986
-0.069646716 -0.0782756 -0.025831178 -0.041992694 -0.025592588 -0.040612217 -0.07556482 -0.077701345
00000000: 815c 6fbc 53ac 00bd 3068 cf3c 57a2 a23d
00000010: ace9 17bd 988c 78bd ae9f 0bbd 55e0 23bd
00000020: ea55 74bd 2a2c 80bd 5d0e 04bc 6f3a 873d
00000030: 9280 7abd ac19 5f3d 09bc 963d a77e 273c
00000040: d153 953d 5c16 c2bc 13cb 9b3d f560 91bd
00000050: df51 3e3b ec6e be3c c836 38bd c0d3 63bb
00000060: 007e 7a3d 0246 093d 3927 903d db94 f5bc
00000070: 8c5a a3bd a2d6 55bd 9ec9 bbbc a7fa b83c
00000080: 70c2 9abd f696 283d 6e37 0cbd 1713 6dbd
00000090: 453b 96bd 6232 63bd 236b 863d 725d 973d
000000a0: 9138 9e3d 2bc2 063d f359 89bd 7983 a5bd
000000b0: 8a8c 0dbd 1108 afbb 68e1 733d 7b4e 333d
000000c0: 935d abbd 1ea7 1d3d 0e63 1dbd f5ab b3bd
000000d0: 081c 80bc 972b dfbc 1a5f 40bc 5c03 92bc
000000e0: 684d 463d 58db 92bd a021 0ebc 6cec 933c
000000f0: 3c03 103d e582 3dbd 1b54 6e3d 6e9a 5c3d
00000100: b409 de3c 10ea 60bd 069b 5b3d c251 fcbc
00000110: 75b1 a93d feed 51bd 5cca 43bd 15b1 75bd
00000120: 15d6 59bd c54e 9d3c 96d2 d83c a71b 183d
00000130: a1e3 92bc a7d7 893d e55c fbbb 1403 873d
00000140: 8102 0fbd 1f4a 4e3d e007 f13c 14f3 a93a
00000150: 0400 d2bb 2f37 9c3d 8450 2dbc c08b d3bc
00000160: c219 86bd b0d1 ba3b 70f7 b4bb 9dc1 8e3d
00000170: b4bb eb3c caa5 3c3d 7d17 973d c878 b53c
00000180: d7cc 243d dc19 613d b605 493d 5d1d ac3d
00000190: 60d0 fcba 270a b3bd 60ff 66bd 4375 58bd
000001a0: 9046 843c 5060 44bd 1274 5ebb fc47 7cbd
000001b0: b04a a2bd 7785 9bbd f4d7 a1bc 6311 1abd
000001c0: d874 b53c 4747 963d 5c8d 2bbd bc27 bd3c
000001d0: 4af1 9fbd a1af 213d 94ab b9bc d852 98bc
000001e0: 14cb 65bd a110 2a3d 5756 85bd b44a 5fbd
000001f0: fd05 3bbd 7c7a cf3c e2b3 9f3c faca b4bd
00000200: 5a85 173d 8786 903d a2d1 323d 6362 843d
00000210: 9a8e 723d de12 213d d333 843d 6253 8cbd
00000220: 73f3 a43d 1139 39bd d8f9 26bc 1dfe 2dbd
00000230: cdf7 a3bd d6e3 2d3d 22ed 0b3d de42 3f3d
00000240: 44f2 e13c 68aa 40bc d64d fbbc 00e0 32b9
00000250: 4d72 993d 009a 1fba 3f4e 843d 5018 23bc
00000260: b070 c33b acc1 dd3c 07ca 813d 8df6 87bd
00000270: 94e5 15bd 9856 01bc 083d 87bc 002e a2bd
00000280: 47b4 4cbd fcae 993c 6662 72bd e330 863d
00000290: 2247 1e3d e439 f0bc a3b4 913d 5012 bbbc
000002a0: c8ba 44bc ece5 91bd ab20 aabd 0554 a4bd
000002b0: 6040 2f3c 32bb 5dbd 1164 b03d 06f2 7d3d
000002c0: d8a4 33bc 9871 e1bc 1874 27bd 0da4 7ebd
000002d0: c906 b43d b660 6dbd 40c0 d6ba 4334 2ebd
000002e0: cec5 98bd cf86 823d 2666 f9bc 58cc b23c
000002f0: c62c 133d d416 e43c 4d90 81bd 1ffe a1bd
00000300: 4a68 353d 0408 84bc 964d 6c3d 7860 2fbc
00000310: 509d 58bd 0000 8337 1dcc 2ebd d0c0 913c
00000320: 80c1 4f3a f224 263d b801 d0bc 1ac6 00bd
00000330: 818d 49bd 86d5 563d b4c9 e03c 88d0 87bc
00000340: 2570 95bd 77ae 33bd b14a acbd c572 a73d
00000350: 4031 263b 746c bc3c 98f4 05bc 3806 1abd
00000360: d720 b13d f8e8 83bc c06a a6bb e574 22bd
00000370: 14ea 063d 5ccf f93c e585 29bd 74f9 4cbd
00000380: 27a4 85bd e19e a9bd 6a94 5a3d c846 a7bc
00000390: c445 b4bd 32c2 743d 0012 62bb c1f2 9e3d
000003a0: 3852 97bd 3c67 b5bc fc9f 92bc 464b 343d
000003b0: 16cc aebd c550 923d 64b2 d2bc 3804 9bbc
000003c0: 835e 26bd a850 cabc c7d5 903d e848 b2bd
000003d0: 3279 423d c447 ecbc db48 903d 9e29 3b3d
000003e0: f0a2 8ebd f54e a0bd e89b d3bc 8800 2cbd
000003f0: 8ca7 d1bc ff58 26bd bac1 9abd e221 9fbd

fc2.bias f4 [128]
-0.0812798 0.070882015 0.06600471 -0.051909953 -0.013963975 -0.08500471 0.065681204 -0.005809039
0.019801568 -0.06452481 0.012866294 0.059071288 0.07795943 -0.0466059 -0.044152416 -0.021363428
0.08347098 0.03735344 0.018380918 0.033446565 -0.078095034 0.014888548 0.029000098 -0.02788718
-0.044951383 -0.07701521 0.07703844 -0.0004090651 0.024413357 -0.034247562 -0.006611038 -0.032739818
0.0813099 0.08700367 0.074950494 0.08309699 0.05936008 -0.062244564 -0.03886406 0.049473833
-0.028483568 -0.082419395 -0.012524318 0.06486281 -0.03661229 0.014425188 0.030615224 0.06604532
-0.07873405 0.007056838 0.06343203 0.017636843 0.06644887 -0.02086305 -0.02150938 -0.0406494
-0.073931985 0.03249612 0.054262184 0.024994701 0.04421751 -0.039456937 -0.02178488 0.07311153
-0.028637592 0.073914066 -0.04418297 -0.06978571 0.022951573 -0.0021466315 -0.06063377 -0.017833887
-0.069127396 -0.07570736 0.07358728 -0.083082564 0.0013425704 -0.076598145 -0.06354984 -0.043054543
0.021433324 -0.06412484 0.04949941 -0.033465765 -0.084997766 -0.08682098 -0.050801437 0.06368401
0.014315326 -0.07259109 -0.06149987 -0.043700583 0.03805663 -0.0868402 -0.0470501 -0.00090827275
0.020218326 -0.0071479976 -0.06638333 0.05956501 0.00440171 0.009283267 0.08534109 0.020777723
0.026803248 -0.034120254 0.0612732 -0.07133816 -0.025735889 0.07483342 0.07727968 0.020361014
-0.04054056 0.024746807 -0.0126566645 0.052112676 -0.061799884 0.025460295 -0.03967033 0.019636476
-0.02650053 -0.05989789 -0.03620721 -0.0007237345 -0.06163282 -0.012076728 -0.023113754 -0.07731852
00000000: 0676 a6bd 972a 913d 7a2d 873d 889f 54bd
00000010: 28c9 64bc f316 aebd de83 863d c059 bebb
00000020: e636 a23c 9525 84bd 26cd 523c bcf4 713d
00000030: 32a9 9f3d d4e5 3ebd 2ad9 34bd 5b02 afbc
00000040: d5f2 aa3d ecff 183d 9493 963c 44ff 083d
00000050: 4af0 9fbd 19ef 733c 9d91 ed3c a873 e4bc
00000060: f11e 38bd 27ba 9dbd 54c6 9d3d ca77 d6b9
00000070: 85fe c73c 2c47 0cbd 68a1 d8bb 301a 06bd
00000080: ce85 a63d fb2e b23d a57f 993d c12e aa3d
00000090: 8e23 733d 28f4 7ebd ec2f 1fbd 13a5 4a3d
000000a0: 5f56 e9bc 80cb a8bd cc32 4dbc cbd6 843d
000000b0: c5f6 15bd a057 6c3c c7cc fa3c c542 873d
000000c0: 513f a1bd 0c3d e73b a7e8 813d 247b 903c
000000d0: 5816 883d fde8 aabc 7034 b0bc fc7f 26bd
000000e0: a769 97bd a71a 053d 0642 5e3d b0c1 cc3c
000000f0: 6b1d 353d 999d 21bd 3476 b2bc 7fbb 953d
00000100: 6299 eabc 4260 973d 34f9 34bd cfeb 8ebd
00000110: f004 bc3c 80ae 0cbb 1e5b 78bd 5f18 92bc
00000120: aa92 8dbd 760c 9bbd eeb4 963d 3127 aabd
00000130: 30f9 af3a 7ddf 9cbd 6b26 82bd f659 30bd
00000140: f094 af3c e253 83bd e5bf 4a3d 6613 09bd
00000150: 4f13 aebd 33cf b1bd 2b15 50bd c36c 823d
00000160: d48a 6a3c a3aa 94bd 4ae7 7bbd 62ff 32bd
00000170: 45e1 1b3d 46d9 b1bd 9bb7 40bd 2719 6eba
00000180: e7a0 a53c c039 eabb fcf3 87bd 71fa 733d
00000190: 383c 903b d818 183c 4fc7 ae3d 0b36 aa3c
000001a0: 7c92 db3c aec1 0bbd 9bf9 7a3d be19 92bd
000001b0: 12d4 d2bc 4442 993d cf44 9e3d 24cc a63c
000001c0: dc0d 26bd d1b9 ca3c e65d 4fbc 1a74 553d
000001d0: e021 7dbd 1c92 d03c 5b7d 22bd addc a03c
000001e0: a417 d9bc 7d57 75bd 034e 14bd 00b9 3dba
000001f0: b272 7cbd 78dd 45bc 0e59 bdbc 2c59 9ebd

value_head.weight f4 [1, 128]
-0.0002073578 0.06281256 -0.041965604 0.06152863 0.07767629 -0.029137466 0.022715796 0.03393347
-0.06147572 -0.016427986 0.071407266 0.0891573 0.04808195 0.08980816 -0.046734817 -0.064322546
-0.07263763 -0.06334476 0.06750264 -0.06028968 -0.06193195 0.0418671 -0.0830427 0.023421453
0.04495263 -0.06276006 -0.060462605 -0.0036629727 0.08552918 -0.05747508 -0.058900516 0.062481713
0.0070226397 0.029428417 0.08343357 -0.044955485 0.012746065 -0.07629951 -0.029272746 -0.0089715645
-0.0043220962 0.05803957 -0.07339672 -0.06331119 -0.038144562 -0.01243411 -0.05733361 -0.032429293
0.041222 -0.06027859 0.009278305 -0.06282549 0.022930348 -0.012027139 0.0059291287 -0.059571665
-0.00032250996 0.08540011 0.00896272 -0.07818784 0.06279465 0.08002589 -0.035673615 -0.047270108
-0.06482945 0.021010285 -0.01263429 0.050874017 -0.044935253 0.047144838 -0.060766906 0.02391531
-0.04519575 0.04905025 0.032737102 -0.01459264 0.08366401 -0.07533691 -0.06949738 0.03231974
-0.08468825 0.04381799 -0.019154472 -0.023965806 -0.042350955 -0.04147081 -0.040950708 0.0060236156
0.06005428 0.07582648 -0.048629668 0.06739792 -0.020395597 0.055368148 0.07435305 -0.0011854365
-0.078657426 0.026973814 -0.0027387217 0.029422618 -0.016713634 0.07348684 -0.004334837 -0.048080623
0.029096551 0.004817851 -0.0075621987 -0.041143533 0.054289967 0.056231674 0.010798919 0.07219709
0.04052907 -0.0049543995 0.0595234 0.017801143 0.045401108 0.04880289 -0.07562021 0.08985104
-0.009194673 0.04518176 -0.0078898175 0.06758427 -0.007338211 -0.019608334 0.0507805 0.028956167
00000000: 306e 59b9 dfa3 803d 20e4 2bbd 7205 7c3d
00000010: bf14 9f3d b2b1 eebc 7a16 ba3c d2fd 0a3d
00000020: f7cd 7bbd fc93 86bc f93d 923d 1a98 b63d
00000030: 94f1 443d 57ed b73d 026d 3fbd 8abb 83bd
00000040: 0ac3 94bd e6ba 81bd d33e 8a3d 50f2 76bd
00000050: 5bac 7dbd d67c 2b3d 4b12 aabd 59de bf3c
00000060: 4020 383d 5988 80bd a3a7 77bd 7c0e 70bb
00000070: ec29 af3d fd6a 6bbd ab41 71bd d3ec 7f3d
00000080: 2c1e e63b dd13 f13c 38df aa3d 3e23 38bd
00000090: dfd4 503c eb42 9cbd 66cd efbc 78fd 12bc
000000a0: 5fa0 8dbb e6ba 6d3d 0551 96bd 4ca9 81bd
000000b0: 793d 1cbd 70b8 4bbc a6d6 6abd 94d4 04bd
000000c0: 66d8 283d afe6 76bd 0804 183c a7aa 80bd
000000d0: 6dd8 bb3c 7a0d 45bc 2349 c23b 6b01 74bd
000000e0: 8e16 a9b9 41e6 ae3d 5fd8 123c f220 a0bd
000000f0: 7b9a 803d 9de4 a33d 7f1e 12bd 4d9e 41bd
00000100: 4dc5 84bd c31d ac3c 0e00 4fbc 4661 503d
00000110: 070e 38bd f21a 413d b8e6 78bd 0aea c33c
00000120: 2e1f 39bd eae8 483d 5717 063d f815 6fbc
00000130: 0958 ab3d 3d4a 9abd a454 8ebd b461 043d
00000140: 0971 adbd 7e7a 333d d7e9 9cbc f053 c4bc
00000150: 3278 2dbd 4cdd 29bd eebb 27bd c061 c53b
00000160: 7afb 753d ea4a 9b3d e72f 47bd ec07 8a3d
00000170: ab14 a7bc b6c9 623d 6946 983d a660 9bba
00000180: 2517 a1bd 30f8 dc3c 207c 33bb b407 f13c
00000190: 08eb 88bc 4580 963d 400b 8ebb 30f0 44bd
000001a0: e45b ee3c 10df 9d3b 52cc f7bb 1f86 28bd
000001b0: 285f 5e3d 2f53 663d f3ed 303c 11dc 933d
000001c0: cf01 263d 8458 a2bb cfce 733d b4d3 913c
000001d0: 83f6 393d 8ae5 473d c5de 9abd d203 b83d
000001e0: 41a5 16bc 8210 393d 4b44 01bc 9f69 8a3d
000001f0: 6075 f0bb a8a1 a0bc 37ff 4f3d 7c35 ed3c
