MetaDrive-PPO-Agent/testing_experiments/ppo_actor_exp6.pth (torch, 204436 bytes, 8 tensors)

fc1.weight f4 [128, 259]
0	0xbdfe527a	-0.12418075
1	0xbda1e8f9	-0.07905764
2	0xbd6060b3	-0.05477972
3	0x3a963872	0.0011460914
4	0xbdc841c0	-0.09778166
5	0xbdea8939	-0.114519544
6	0x3d61bc56	0.05511125
7	0xbdb5c76a	-0.08875926
8	0xbd685f25	-0.056731362
9	0xbc2384e0	-0.00998041
10	0xbdb0b03c	-0.08627364
11	0xbd4a043e	-0.049320452
12	0xbca439f2	-0.020047162
13	0xbc03eab3	-0.008051562
14	0xbd9ddc46	-0.077080294
15	0xbc53fdf0	-0.012938961
16	0x3d4df8d6	0.050286137
17	0xbc8e588c	-0.017376207
18	0xbdb0f332	-0.08640136
19	0xbcd381cb	-0.025818726
20	0xbce3cda0	-0.02780801
21	0xbd67e33f	-0.056613203
22	0xbd896b41	-0.0670991
23	0xbdad1a32	-0.08452262
24	0xbd651ec8	-0.05593756
25	0xbdd1cb7f	-0.10243892
26	0xbcb353af	-0.02189049
27	0x3c12168b	0.0089165075
28	0x3cb3b18a	0.021935243
29	0xbc3023d5	-0.0107507305
30	0xbd88555d	-0.06656907
31	0xbcfba557	-0.030718489
32	0x3c6d7393	0.014492887
33	0xbdc6a23c	-0.096989125
34	0xbc4239fa	-0.011854643
35	0xbb7f8ef2	-0.0038995114
36	0xbc0099f5	-0.007849206
37	0xbdc4d30c	-0.096105665
38	0xbd91ec05	-0.07125095
39	0xbcddfaf8	-0.02709721
40	0xbcc42985	-0.02394558
41	0x3ab57ab8	0.0013845777
42	0xbc590ec0	-0.013248146
43	0x3c903cf3	0.017607188
44	0x3ba084af	0.0048986296
45	0x3c2e989e	0.010656504
46	0x3c7d3cb5	0.015456368
47	0xbd16d610	-0.03682524
48	0xbb6027c3	-0.0034203387
49	0xbc9c303a	-0.019065965
50	0xbdb98e5e	-0.090603575
51	0xbcd4c8fc	-0.025974743
52	0xbd9b9edd	-0.0759866
53	0xbd88bbad	-0.06676421
54	0xbd4707d2	-0.048591442
55	0xbc1ae351	-0.0094536105
56	0xbcbebb9c	-0.023282818
57	0xbdbde7b7	-0.09272712
58	0xbc1e4b4a	-0.009661505
59	0xbdb386a1	-0.08765913
60	0xbd4ffa05	-0.050775547
61	0x3c062296	0.008186957
62	0x3c189545	0.009312932
63	0xbd95c7e5	-0.073135175
64	0xbdbe91a1	-0.0930512
65	0x3c4a9f53	0.012367087
66	0x3c210dfd	0.009829995
67	0xbc843382	-0.016137842
68	0xbdb370cb	-0.08761748
69	0xbd833400	-0.064064026
70	0xbbd7308d	-0.006567067
71	0xbd1a6004	-0.037689224
72	0x3b9b21d1	0.004734256
73	0x3c224eb5	0.0099064605
74	0xbc5b9311	-0.013401763
75	0x3c281ad3	0.010260302
76	0xbd9cf1e3	-0.07663324
77	0xbcdfc0ec	-0.027313672
78	0xbd7fefca	-0.06248454
79	0xb9ee2496	-0.00045422156
80	0xbd8e4204	-0.06946185
81	0xbd2ebe59	-0.042662
82	0xbd887e35	-0.06664697
83	0x3c10f170	0.008846626
84	0xbd8d6989	-0.06904895
85	0xbd472097	-0.048615064
86	0x3c949366	0.018136691
87	0xbca3cca6	-0.019995045
88	0xbcce2a0a	-0.02516653
89	0xbd4c50b7	-0.049881663
90	0xbd8303a1	-0.063971765
91	0xbd9a7e86	-0.07543664
92	0xbd83f6d7	-0.06443565
93	0xbd9db9c1	-0.07701445
94	0xbd88fcc4	-0.06688836
95	0xbd99bd07	-0.07506757
96	0xbcebaea4	-0.028769799
97	0xbc401595	-0.011723896
98	0xbd1e06d2	-0.038580723
99	0x3bfc9cd5	0.0077091255
100	0xbd8f93ea	-0.07010634
101	0xbdb431c0	-0.087985516
102	0xbcdd0004	-0.026977547
103	0xbca2287d	-0.019794697
104	0xbdba6262	-0.09100796
105	0xbd9f41e3	-0.07776239
106	0xbd12db13	-0.035853457
107	0xbd120ec2	-0.035658605
108	0xbdafc08f	-0.085816495
109	0xbdcd411b	-0.100221835
110	0xbd0b157b	-0.033956032
111	0xbc721021	-0.014774353
112	0xbdc21a74	-0.09477702
113	0xbcafe592	-0.021471772
114	0xbc4482e4	-0.011994097
115	0xbd8c9fa8	-0.068663895
116	0xbc9ff815	-0.019527474
117	0x3c311814	0.010808963
118	0xbdd09703	-0.10185053
119	0xbd8e22ad	-0.06940208
120	0xbd2efbd1	-0.04272062
121	0xbda3f83b	-0.080063306
122	0xbdc54ee6	-0.09634189
123	0xbdacc01b	-0.08435079
124	0xbc373f5f	-0.011184542
125	0xb86abd90	-5.596649e-05
126	0xbd2ebba5	-0.04265942
127	0xbd4ab538	-0.04948923
128	0xbdbe9db1	-0.09307421
129	0xbd91c592	-0.07117762
130	0x3c8ba64a	0.017047066
131	0xbce376c2	-0.02776659
132	0xbdb0e7d1	-0.086379655
133	0xbd829959	-0.06376905
134	0xbc3e43be	-0.011612831
135	0xbb436dba	-0.002982004
136	0xbdc56d0f	-0.09639942
137	0xbd5ef129	-0.054429207
138	0xbd4847fd	-0.04889678
139	0xbda30e3a	-0.07961698
140	0x3c47244b	0.012154649
141	0xbc7f3afe	-0.01557803
142	0xbd970501	-0.07374001
143	0xbc7267fc	-0.0147953
144	0xbc19dd5e	-0.009391157
145	0xbd8a9c11	-0.067680486
146	0x3c022b52	0.007944899
147	0xbd8f9cb3	-0.0701231
148	0xbd1f08e9	-0.038826857
149	0xbd8cb36a	-0.06870158
150	0xbb9532be	-0.004553168
151	0xbd91dbae	-0.07121979
152	0x3c583074	0.013195146
153	0xbcce80af	-0.025207845
154	0xbd32d464	-0.043659583
155	0x3bad583b	0.005290059
156	0xbbf66981	-0.0075199013
157	0xbc6e812e	-0.014557166
158	0xbda4be6a	-0.08044131
159	0xbcc66751	-0.024219187
160	0xbdbe8a9b	-0.09303781
161	0xbd93a875	-0.07209865
162	0xbd74d2b4	-0.059771255
163	0xbd2f6638	-0.042822093
164	0x3cbf5797	0.023357196
165	0xbc2fabcb	-0.010722111
166	0x3bdb4e24	0.0066926647
167	0xbdb349e4	-0.08754328
168	0xbd998e86	-0.07497887
169	0xbd1c9a0c	-0.038232848
170	0xbd947b95	-0.07250134
171	0xbd5027b6	-0.05081912
172	0x3be05e66	0.0068471907
173	0xbdb10604	-0.086437255
174	0xbc95dc2d	-0.018293465
175	0xbc94bc48	-0.018156186
176	0xbd1315b5	-0.035909373
177	0x3caee331	0.021348568
178	0x3c85d5e9	0.016337352
179	0xbd99fc18	-0.07518786
180	0xbd9a8dc4	-0.07546571
181	0x3b865e1a	0.0041005732
182	0xbd75958b	-0.05995707
183	0x3ca9a42e	0.02070817
184	0xbcb531fd	-0.022118563
185	0xbd878c8e	-0.066186056
186	0xbd908b91	-0.0705787
187	0xbd192bb4	-0.037395194
188	0xbd527d6a	-0.051389135
189	0xbd987f41	-0.07446147
190	0xbd999bb4	-0.07500401
191	0xbd6da461	-0.058018092
192	0xbd3ecc98	-0.046581835
193	0xbd8cb6b6	-0.06870787
194	0xbd9c7c66	-0.076409146
195	0xbdcf3840	-0.10118151
196	0xbc3b26cc	-0.011422824
197	0x3b88cb05	0.0041745924
198	0xbd542d3c	-0.05180095
199	0xbc870fbd	-0.016486997
200	0xbcfb7b55	-0.030698458
201	0xbc6b21db	-0.0143513335
202	0xbd8da00b	-0.069152914
203	0xbd35a66d	-0.04434817
204	0xbd3b96f6	-0.045798264
205	0xbd42cdcc	-0.047559544
206	0xbd5862f8	-0.05282876
207	0xbd2b97df	-0.041892882
208	0x3c5ebe4d	0.013595176
209	0xbdb6ce97	-0.08926123
210	0xbcc9b9ea	-0.024624784
211	0xbbcf906d	-0.0063343556
212	0xbdd04137	-0.10168689
213	0xbd9cb8d8	-0.07652444
214	0xbda401be	-0.08008145
215	0x3c674bf8	0.014117233
216	0x3c6f8d37	0.014621071
217	0xbc6e1d93	-0.014533418
218	0xbd58d6fa	-0.052939393
219	0xbdefe77a	-0.117140725
220	0xbcf7a132	-0.030228231
221	0xbda81ff9	-0.08209223
222	0x3b7da698	0.0038704034
223	0xbbd165f4	-0.0063903276
224	0x3c0846de	0.008317677
225	0xbdbf30e3	-0.09335496
226	0xbd43e712	-0.047827788
227	0xbd4790b7	-0.048721995
228	0xbbdb6957	-0.006695907
229	0xbaa1577a	-0.0012309395
230	0xbcaac132	-0.020844076
231	0xbdaf9e47	-0.08575111
232	0xbbb5ab28	-0.005544085
233	0xbdbaa6bf	-0.091138355
234	0xbc9f0fbe	-0.019416686
235	0x3cbd9f66	0.023147296
236	0xbdacc1b4	-0.084353834
237	0xbcba988c	-0.022777818
238	0xbc6fbdfe	-0.0146327
239	0xbdaca13a	-0.08429189
240	0x3c9afcec	0.01891943
241	0xbdac815c	-0.08423111
242	0xbd28dd32	-0.041226573
243	0xbcc4a3a8	-0.024003819
244	0xbd4cff87	-0.050048377
245	0xbd8707e0	-0.06593299
246	0xbcfc02b6	-0.030763011
247	0xbd03b533	-0.032155227
248	0xbca2d937	-0.019878967
249	0xbda87d30	-0.082270026
250	0xbd0638c4	-0.03276898
251	0xbcf489a0	-0.029850781
252	0xbd38588f	-0.04500633
253	0xbbf9c32d	-0.0076221437
254	0xbd3fa305	-0.046786327
255	0xbdbe4f82	-0.09292509

fc1.bias f4 [128]
0	0xbda77bf5	-0.0817794
1	0xbd3a0409	-0.045414004
2	0x3c81e155	0.015854517
3	0xbda82b4b	-0.082113825
4	0xbce88298	-0.028382584
5	0xbd79ea5b	-0.061014514
6	0xbdd8feb3	-0.10595455
7	0xbd963acf	-0.073354356
8	0xbddc97f4	-0.1077117
9	0xbdaa1dff	-0.083065026
10	0xbdc31e59	-0.09527273
11	0x3c12c13b	0.008957203
12	0xbd178517	-0.03699216
13	0x3d08d0c0	0.033402205
14	0xbbadd59d	-0.0053050057
15	0xbd3fc81c	-0.0468217
16	0xbbf14f48	-0.0073641874
17	0xbd1e6ac5	-0.038676042
18	0xbd5837da	-0.05278764
19	0xbbe0caba	-0.0068601044
20	0xbc3a2fb1	-0.01136391
21	0xbdaf9eca	-0.085752085
22	0x3cb1d6cb	0.021708867
23	0xbc267b4d	-0.010161233
24	0xbd5dd5c0	-0.054158926
25	0xbcadece0	-0.021231115
26	0xbbf0ab13	-0.0073446124
27	0xbd051820	-0.03249371
28	0xbda96623	-0.08271434
29	0xbd8da56e	-0.06916319
30	0x3d21e85c	0.039528236
31	0xbc817710	-0.015803844
32	0x3bf9504e	0.00760845
33	0xbd62f028	-0.055404812
34	0xbcd25c16	-0.025678676
35	0x3d0de2dd	0.03464018
36	0x3d2e4116	0.04254254
37	0x3d54d3ca	0.05195979
38	0x3c24870c	0.010041963
39	0xbdb7b73c	-0.08970496
40	0x3c8727e8	0.016498521
41	0x3cc34cac	0.023840271
42	0xbd89649a	-0.06708641
43	0x3bbde94e	0.0057956344
44	0xbc8f49df	-0.01749128
45	0xbd38ce22	-0.04511846
46	0xbd4c0f5a	-0.049819328
47	0xbdcbb2b7	-0.099461965
48	0xbdb7452f	-0.089487426
49	0xbc9a8ebb	-0.018866887
50	0xbae7d7ad	-0.0017688178
51	0x3d0f8230	0.035036266
52	0xbdc94af1	-0.09828747
53	0x3b08d629	0.0020879603
54	0xbdc1763d	-0.0944638
55	0xbdbae649	-0.09125955
56	0xbddfb3f0	-0.10922992
57	0xbd2cc851	-0.042183224
58	0xbcd18b8b	-0.025579235
59	0x3d377c5c	0.044796333
60	0x3ba32d56	0.0049797697
61	0xbd33736a	-0.04381124
62	0xbdb314e6	-0.087442204
63	0xbdc6db16	-0.09709756
64	0x3cf52d2c	0.029928766
65	0xbd39b6d6	-0.04534038
66	0xbc4efab0	-0.012633011
67	0xbd6e9e40	-0.058256388
68	0xbd104a53	-0.03522713
69	0x3c394ef0	0.011310324
70	0xbce00d0a	-0.027349968
71	0x3d2c162a	0.042013325
72	0xbc979582	-0.018503908
73	0xbd4fff0e	-0.05078035
74	0xbc8a843c	-0.016908757
75	0x3c756220	0.014977008
76	0xbdbe76cf	-0.09300005
77	0x3cb00c93	0.02149037
78	0xbd0a7651	-0.03380424
79	0x3bc7cb8e	0.0060972637
80	0x3c316d5f	0.010829299
81	0xbd123ece	-0.035704426
82	0xbcc389b8	-0.02386938
83	0xbda2a0ef	-0.07940852
84	0xbdb81893	-0.08989062
85	0xbcae86a2	-0.021304432
86	0xbc6ac73e	-0.01432973
87	0xbdae660a	-0.08515556
88	0xbde6e8fa	-0.112749055
89	0xbc7ca414	-0.015419979
90	0xbd21526c	-0.039385244
91	0xbdcb9888	-0.099412024
92	0xbb8e3d89	-0.0043408317
93	0xbdee40ba	-0.11633439
94	0x3b7737a0	0.0037722364
95	0xbb988784	-0.0046548266
96	0xbdc38925	-0.095476426
97	0xbd767303	-0.060168277
98	0x3d2fb39c	0.0428959
99	0xbc8007cc	-0.015628718
100	0xbde650f4	-0.11245909
101	0xbcfd7f19	-0.030944394
102	0xbc48b3ea	-0.012249926
103	0xbd5088f0	-0.050911844
104	0xbd75d7ec	-0.060020372
105	0xbdc8e06d	-0.09808431
106	0x3d54593a	0.051842906
107	0xbd02fab9	-0.03197739
108	0xbd91fe83	-0.071286224
109	0xbb4bc3fc	-0.0031092158
110	0xbdaec2c4	-0.08533242
111	0xbdcc254a	-0.0996805
112	0xbd65fedb	-0.056151252
113	0xbd319736	-0.043357097
114	0xbcf467d2	-0.029834662
115	0xbca99bca	-0.020704169
116	0x3c8e7fa0	0.01739484
117	0xbc93b9b2	-0.018032882
118	0xbd9797ce	-0.07402001
119	0xbc596f8f	-0.013271227
120	0xbbd75759	-0.006571692
121	0xbcbc537b	-0.022989025
122	0x3d0ee628	0.034887463
123	0xbd51201c	-0.051056013
124	0x3ca6ee1c	0.020377211
125	0xbda91ae0	-0.08257079
126	0xbd500e63	-0.05079497
127	0x3b8dad77	0.004323657

fc2.weight f4 [128, 128]
0	0x3c5c0331	0.013428495
1	0xbdf478c0	-0.11937094
2	0xbdbc61bc	-0.09198329
3	0xbdbdb318	-0.09262675
4	0x3be0e8ab	0.0068636737
5	0x3d611d7b	0.054959755
6	0xbe18c66e	-0.14919445
7	0x3cf50215	0.02990822
8	0xbde2ec91	-0.11080278
9	0xbd603583	-0.054738533
10	0x3cb2c6b7	0.02182327
11	0x3c752d5a	0.014964426
12	0x3bf2d1e0	0.007410273
13	0x3d9e23b5	0.07721654
14	0x3d05e568	0.032689482
15	0xbd83d45b	-0.06436988
16	0x3d5f3fd2	0.054504223
17	0xbd8a5788	-0.067549765
18	0xbe00df1c	-0.1258511
19	0x3cde3277	0.027123673
20	0xbdd86f74	-0.10568133
21	0xbd8e2724	-0.06941059
22	0x3cf9ddd0	0.030501276
23	0xbdb374a1	-0.087624796
24	0x3da3983f	0.07988023
25	0x3c21abd0	0.009867623
26	0xbd11338b	-0.035449546
27	0x3d6ed62c	0.05830972
28	0xbdeb3782	-0.11485197
29	0xbdf221fc	-0.11822888
30	0xbc85a104	-0.01631213
31	0xbcb46ec9	-0.022025483
32	0x3cf2aad8	0.02962248
33	0x3d92654f	0.07148229
34	0xbcb696e3	-0.022288745
35	0x3da1fdd7	0.07909744
36	0x3d910735	0.07081453
37	0x3c28cf80	0.010303378
38	0xbd9973be	-0.07492779
39	0xbcd42d84	-0.02590061
40	0xbcc60171	-0.02417061
41	0x3c9d9620	0.019236624
42	0x3c503ce8	0.012709834
43	0xbdfd36cd	-0.12363968
44	0x3d28471b	0.041083436
45	0x3dc3ffe1	0.095702894
46	0x39c25000	0.00037062168
47	0x3d7e6396	0.06210669
48	0xbdce1838	-0.10063213
49	0x3d04b726	0.032401226
50	0xbc6be9e4	-0.014399026
51	0x3cf9c2fb	0.030488482
52	0xbdce1bb2	-0.10063876
53	0x3c49fd8c	0.012328517
54	0xbdc2ff17	-0.09521311
55	0xbcf3ccb2	-0.029760692
56	0x3cff1e61	0.031142415
57	0x3d9d43bf	0.07678937
58	0xbd135f35	-0.03597947
59	0x3d360af3	0.044444036
60	0x3c2c615c	0.010521259
61	0x3d87b879	0.06626982
62	0x3ca83e72	0.020537589
63	0xbde47b70	-0.11156356
64	0x3d3acbba	0.045604445
65	0x3d7d1035	0.061783034
66	0x3d8ce2bb	0.06879183
67	0xbd6a13f6	-0.057147942
68	0xbcca1b71	-0.024671288
69	0xbd5eccfe	-0.054394715
70	0xbd320224	-0.043459073
71	0x3d26190a	0.040551223
72	0x3bef7920	0.0073081404
73	0x3d07173e	0.03298115
74	0x3b08c280	0.0020867884
75	0x3d9297c5	0.07157854
76	0xbcd19c0e	-0.025587108
77	0x3ba25ab6	0.0049546612
78	0x3cbdc9d3	0.023167526
79	0xbdd801ca	-0.10547216
80	0xbde1ac91	-0.110192426
81	0xbbf4c9d0	-0.007470347
82	0xbd13bb82	-0.036067493
83	0xbbe89bcb	-0.00709865
84	0xbd8f4505	-0.06995586
85	0xbdac5500	-0.0841465
86	0x3b0fa934	0.0021920921
87	0xbe0961e2	-0.13416246
88	0xbc27fb4b	-0.010252784
89	0x3d646f3a	0.055770136
90	0xbc28906d	-0.01028834
91	0xbd85c2e1	-0.06531311
92	0x3d68ea0c	0.05686383
93	0xbd228feb	-0.039688032
94	0xbc89a528	-0.016802385
95	0xbc32fff2	-0.01092528
96	0xbe0a3ec1	-0.13500501
97	0x3d9f0957	0.07765453
98	0x3c698be0	0.01425454
99	0x3c43df98	0.011955164
100	0xbb1b6a60	-0.0023714527
101	0xbd0cefbc	-0.034408316
102	0x3da4aaad	0.08040366
103	0x3cdc87cc	0.026920222
104	0xbde38332	-0.11109008
105	0xbdc95e9a	-0.09832497
106	0x3d58457e	0.052800648
107	0xbdddc0c1	-0.108277805
108	0x3bc02590	0.005863853
109	0xbe0fc1ed	-0.1403882
110	0xbd85bf7d	-0.06530664
111	0xbc839afa	-0.01606511
112	0x3cfd12f2	0.030892823
113	0xbdea00cf	-0.114259355
114	0xbcbac979	-0.022801148
115	0x3b8095db	0.003924114
116	0xbd5a509a	-0.053299524
117	0x3d7ad80a	0.061241187
118	0xbc8f2198	-0.017472073
119	0xbe0a86d3	-0.13527994
120	0x3bc72117	0.0060769427
121	0xbc3fca16	-0.011705896
122	0x3d43fb2a	0.04784695
123	0xbd21caae	-0.03949993
124	0xbd03a69c	-0.032141313
125	0xbd60d757	-0.054892864
126	0x3d0e2100	0.03469944
127	0x3c56f93c	0.013120946
128	0xbe144188	-0.14478123
129	0xbcb66694	-0.02226571
130	0xbd1ebd9b	-0.03875504
131	0xbddbd9d3	-0.10734906
132	0xbda60f7c	-0.08108422
133	0xbd9a9ed9	-0.07549829
134	0x3c2d3d9c	0.010573771
135	0xbe106372	-0.14100435
136	0x3cf91a2a	0.030407984
137	0xbde9ef5b	-0.114226066
138	0x3caedabc	0.021344535
139	0xbd17e3b1	-0.037082378
140	0x3d8b5825	0.068039216
141	0xbcfaed56	-0.030630749
142	0xbdcad2f1	-0.09903515
143	0xbda9d5e6	-0.08292751
144	0xbdad4aab	-0.084615074
145	0x3d1f2bbe	0.038860075
146	0xbdedecbd	-0.1161742
147	0xbd7e0256	-0.062013946
148	0xbcfa862e	-0.03058156
149	0x3c65d65d	0.014028159
150	0xbdfc70ac	-0.12326178
151	0xbe0f07cb	-0.13967817
152	0x3d4e21a6	0.05032506
153	0xbcb760a0	-0.022384942
154	0x3da09270	0.07840431
155	0xbc81b43c	-0.015833013
156	0xbe0c0e7d	-0.13677402
157	0x3bf51802	0.0074796686
158	0xbd632060	-0.055450797
159	0xbe18cc82	-0.14921764
160	0xbd93594b	-0.07194766
161	0xbda543c6	-0.080695674
162	0xbcf30741	-0.029666545
163	0xbe065de0	-0.13121748
164	0xbd955f68	-0.07293588
165	0xbb910540	-0.0044256747
166	0xbc95a948	-0.018269196
167	0xbbd70388	-0.0065617003
168	0xbd26e38b	-0.040744346
169	0xbbbdd430	-0.005793117
170	0x3cd6d224	0.02622325
171	0xbe0592e4	-0.13044316
172	0xbde20312	-0.11035742
173	0xbe0143fd	-0.12623592
174	0xbdaea30a	-0.08527191
175	0xbce9319a	-0.028466035
176	0xbe0b16c8	-0.13582909
177	0x3c2f7b48	0.010710545
178	0x3d6078e9	0.05480281
179	0xbbc12156	-0.0058938665
180	0xbd84b774	-0.064803034
181	0x3d385d9a	0.04501114
182	0x3b0b9a5f	0.002130173
183	0xba8eabbe	-0.0010884923
184	0x3e0d1c10	0.13780236
185	0xbd4a58c6	-0.049401067
186	0xbdf568fd	-0.119829156
187	0x3d16eeef	0.03684896
188	0xbdae2099	-0.08502311
189	0xbd09de10	-0.03365904
190	0xbda0f7d3	-0.07859769
191	0x3ca076fd	0.019587988
192	0xbc992e18	-0.018698737
193	0xbd4137be	-0.0471723
194	0x3d8467b1	0.0646509
195	0xbdb2d021	-0.08731104
196	0x3d0eabd4	0.034831837
197	0xbdeb3e96	-0.11486547
198	0xbe194207	-0.14966594
199	0x3d2a9c66	0.04165306
200	0x3d1b92ba	0.037981726
201	0xbdb31a8e	-0.08745299
202	0x3d52fa7a	0.051508404
203	0xbca641bc	-0.020295016
204	0xbc9ace4b	-0.018897196
205	0x3cc08362	0.023500148
206	0x3cdca647	0.026934756
207	0xbd5b9251	-0.053606335
208	0xbd2c6fe1	-0.042098884
209	0x3da14f45	0.078764476
210	0x3db34bf5	0.08754722
211	0x3e017cde	0.1264529
212	0xbda6f491	-0.08152116
213	0xbcffe909	-0.03123905
214	0x3ccc5ce4	0.024946637
215	0xbcd17785	-0.025569687
216	0x3cb8f155	0.022576014
217	0x3d4b81b6	0.04968425
218	0x3afdfc68	0.0019377591
219	0x3d3d625b	0.046236377
220	0x3dd96c2f	0.106163375
221	0xbe232c75	-0.15934928
222	0xbc5744c0	-0.01313895
223	0xbdc8ca7a	-0.09804244
224	0xbdbbcb9d	-0.091696955
225	0x3abda2c0	0.0014468059
226	0x3c0b3ba0	0.008498102
227	0x3d70442e	0.05865877
228	0xbda66095	-0.0812389
229	0xbc02c9d0	-0.007982686
230	0xbd04630b	-0.032321017
231	0x3d91e17d	0.071230866
232	0xbd6512d6	-0.055926166
233	0x3d30577a	0.043052174
234	0x3cd1bdf0	0.025603265
235	0x3d5517de	0.052024715
236	0x3ca3bdd2	0.019987974
237	0xbc8fa1e4	-0.01753325
238	0x3c917306	0.017755043
239	0xbe091ab7	-0.13389097
240	0xbd80b6c9	-0.062848635
241	0xbcf44fb7	-0.029823167
242	0xbd4b55fe	-0.049642555
243	0x3c8cd4ab	0.017191252
244	0x3a9ad200	0.0011811852
245	0x3da6091d	0.08107207
246	0x3ccea1da	0.025223661
247	0x3d1076ca	0.035269536
248	0xbd88d19e	-0.06680606
249	0xbd9fb85a	-0.07798834
250	0xbcaba574	-0.020952918
251	0x3d9e3de1	0.07726646
252	0x3da60999	0.08107299
253	0xbda3a049	-0.07989556
254	0x3db72d53	0.08944192
255	0xbdd5f470	-0.104470134

fc2.bias f4 [128]
0	0xbc84bae5	-0.0162024
1	0xbde4039c	-0.11133501
2	0xbc847a31	-0.016171547
3	0x3cc3ac54	0.023885883
4	0x3d798a93	0.06092317
5	0xbdc7fcb6	-0.09764998
6	0x3c00a117	0.007850907
7	0xbd61aa47	-0.05509403
8	0xbd724722	-0.05914987
9	0xbd484f41	-0.048903707
10	0x3d8c4d92	0.06850733
11	0x3b892b6c	0.0041860845
12	0x3d5cb8db	0.05388723
13	0xbd71c85e	-0.059028976
14	0xbde092e0	-0.10965514
15	0xbd487a1b	-0.048944574
16	0x3ca4b254	0.020104565
17	0xbd839247	-0.064243846
18	0x3d41d3e4	0.047321215
19	0xbc9a6faf	-0.018852083
20	0xbcfed681	-0.031108143
21	0x3cb2d42a	0.021829683
22	0x3d676496	0.05649241
23	0xbd9b9316	-0.07596414
24	0xbe025945	-0.12729366
25	0x3d3ad024	0.045608655
26	0xbd22d3d0	-0.03975278
27	0xbb3e8657	-0.0029071772
28	0x3d8dc713	0.06922736
29	0x3cfc982f	0.030834286
30	0x3cb91648	0.022593632
31	0xbda81754	-0.082075745
32	0x3cd7836c	0.026307784
33	0xbcb8e042	-0.022567872
34	0xbd354534	-0.04425545
35	0xbda8d90e	-0.08244525
36	0xbcca87a9	-0.02472289
37	0xbdee85a8	-0.11646587
38	0xbe015bae	-0.1263263
39	0x3cf72009	0.030166643
40	0xbd710ad8	-0.058848232
41	0xbc756ece	-0.014980031
42	0xbd387db6	-0.045041762
43	0xbd5d3e85	-0.0540147
44	0xbd6296ad	-0.055319477
45	0x3d16f62d	0.036855865
46	0x3bedaa47	0.0072529647
47	0xbdcc3c00	-0.099723816
48	0xbdf25c18	-0.11833972
49	0x3d1ecac2	0.038767584
50	0xbdaf6bfc	-0.08565518
51	0xbd510d60	-0.051038146
52	0xbdbc7cf0	-0.092035174
53	0x3db44b6f	0.0880345
54	0xbd9734f8	-0.0738315
55	0xbd8d529d	-0.06900523
56	0xbdc152f8	-0.09439653
57	0xbce4c5fd	-0.02792644
58	0x3c4f3b20	0.012648374
59	0xbcf236b9	-0.02956711
60	0x3ce2a1b8	0.027665004
61	0x3d82760d	0.06370173
62	0x3da7032d	0.081549026
63	0x3bb3f6f7	0.005492087
64	0x3d5c7ee5	0.053831954
65	0x3d101be1	0.035182837
66	0xbcf35b7a	-0.029706705
67	0xbde90878	-0.113785684
68	0xbc67dcc6	-0.014151758
69	0xbd907c30	-0.07054937
70	0x3d592159	0.05301032
71	0x3dd197e9	0.10234053
72	0x3cabbc20	0.020963728
73	0xbd151fdf	-0.036407348
74	0x3d95f9fe	0.07323073
75	0x3d88951e	0.06669067
76	0xbdaa5283	-0.08316519
77	0xbd92cf1b	-0.071684085
78	0xbd0ff8c7	-0.035149362
79	0x3ca48e62	0.020087425
80	0xbd825032	-0.06362952
81	0x3cc0f725	0.023555348
82	0x3cb05420	0.021524489
83	0xbd9dd0f8	-0.07705873
84	0xbdfcda76	-0.123463556
85	0xbd6416d4	-0.055685833
86	0xbd51128f	-0.05104309
87	0xbd534bc2	-0.05158592
88	0x3c80fd95	0.015745917
89	0xbd11a4f9	-0.03555772
90	0x3d47a7cb	0.048744004
91	0xbcd1d6d9	-0.025615143
92	0x3c382450	0.011239126
93	0x3d442923	0.047890794
94	0xbdf04979	-0.11732764
95	0x3bdcf275	0.0067427703
96	0x3b4e548e	0.0031483504
97	0xbe0f3361	-0.13984443
98	0xbd090569	-0.033452425
99	0xbc85e5d5	-0.016344944
100	0xbd87e966	-0.06636314
101	0xbd977834	-0.07395974
102	0xbd7b8da7	-0.061414387
103	0x3bca747d	0.0061784373
104	0x3d1dc746	0.03852012
105	0xbd9c1536	-0.07621233
106	0xbc30fc7e	-0.010802386
107	0x3c087ecf	0.008331015
108	0xbc8821dc	-0.016617708
109	0xbce0b76f	-0.027431218
110	0x3c0cd8fb	0.008596654
111	0xbd580e66	-0.052748106
112	0xbd46ee57	-0.048567142
113	0xbbea4ec7	-0.0071505043
114	0xbd55d5c9	-0.052205835
115	0xbc9be944	-0.019032128
116	0xbdedf623	-0.116192125
117	0x39f8113c	0.00047315087
118	0xbd6dfa5c	-0.05810009
119	0xbdaedc26	-0.08538084
120	0x3d02752a	0.031850018
121	0xbdd4752a	-0.1037391
122	0x3cdc0d0b	0.026861688
123	0xbdab4df2	-0.08364476
124	0x3d5efc54	0.054439858
125	0xbdb0feac	-0.08642325
126	0xbc4ef1d2	-0.012630897
127	0xbcf8599c	-0.030316167

mu_head.weight f4 [2, 128]
0	0xbc8a1cf2	-0.016859505
1	0x3cba888f	0.022770194
2	0xbd269618	-0.040670484
3	0xbc3d6b13	-0.011561173
4	0x3d100054	0.035156563
5	0x3c02a010	0.007972732
6	0xbd5a9de5	-0.053373236
7	0x3dafa3d7	0.08576172
8	0xbcafe782	-0.021472696
9	0xbd166050	-0.036712945
10	0xbd10cca1	-0.0353514
11	0x3ca59c6a	0.020216186
12	0x3d716f87	0.05894425
13	0x3d16084d	0.03662901
14	0x3d1c6cf0	0.03818983
15	0xbcb378b6	-0.021908145
16	0x3dae911e	0.08523773
17	0x3d7eddb0	0.062223136
18	0xbdc26fec	-0.09494004
19	0x3c8f1f12	0.01747087
20	0xbe03d0f6	-0.12872681
21	0x3d97f20b	0.07419213
22	0xbcd261c8	-0.025681391
23	0x3bba68c7	0.00568876
24	0x3ad0a4f7	0.0015918304
25	0x3dcfa93d	0.101397015
26	0xbce6a107	-0.028152956
27	0xbdc4b23f	-0.0960431
28	0x3cc4ed9f	0.024039088
29	0xbd45d922	-0.048302777
30	0xbd02bbe6	-0.031917475
31	0x3cf935fe	0.030421253
32	0xbe0b568f	-0.13607238
33	0x3cf213ba	0.029550422
34	0x3d03ee76	0.032209836
35	0xbd322123	-0.043488633
36	0x3cbcaa83	0.023030525
37	0xbb89a680	-0.0042007565
38	0xbc1225cd	-0.008920145
39	0x3c96e055	0.018417517
40	0x3ae719a4	0.0017631543
41	0x3d817d7b	0.063227616
42	0x3d8e88a4	0.06959656
43	0x3d89a226	0.067203805
44	0xbd54fa70	-0.05199665
45	0x3d32a3cc	0.04361324
46	0xbd8e2f0c	-0.06942567
47	0x3cbdb9a5	0.023159811
48	0x3d8291f7	0.06375497
49	0x3d9556bf	0.07291936
50	0xbd0f81e3	-0.03503598
51	0xbc16d4a7	-0.009205974
52	0x3de72e35	0.1128811
53	0xbdac31c5	-0.0840793
54	0x3e06cfcc	0.13165206
55	0xbd3d1ae1	-0.04616821
56	0xbd2dce41	-0.042433027
57	0x3c89ae3d	0.016806716
58	0x3d142710	0.036170065
59	0x3b8a1b02	0.0042146454
60	0xbc30928e	-0.010777129
61	0xbd1d4525	-0.03839602
62	0x3ddfc278	0.10925764
63	0xbd001eae	-0.03127926
64	0x3bbb8f20	0.005723849
65	0xbda21fd8	-0.0791623
66	0xbd9409be	-0.07228421
67	0x3c28803e	0.010284482
68	0xbd9bfaab	-0.076161705
69	0xbc86fab2	-0.016476963
70	0xbc4a4fc6	-0.012348121
71	0xbd908890	-0.07057297
72	0xbdcacb39	-0.09902043
73	0x3dc0b53c	0.09409568
74	0x3cca1df6	0.02467249
75	0x3d023209	0.031786
76	0xbd01f5f3	-0.031728696
77	0xbdb4b085	-0.08822731
78	0x3bb5d6b0	0.0055492744
79	0xbc37be83	-0.011214855
80	0xbd90da7f	-0.07072925
81	0x3c852125	0.016251156
82	0xbd21eccc	-0.039532468
83	0xbd96c955	-0.0736262
84	0x3d6895cf	0.056783494
85	0xbd099b1f	-0.0335952
86	0xbe065af2	-0.1312063
87	0x3bd77cd5	0.0065761604
88	0x3d463033	0.04838581
89	0x3c1f96a9	0.00974051
90	0xbc19bbb8	-0.009383135
91	0xbda77958	-0.08177441
92	0x3d9fc49c	0.07801172
93	0xbcbe8c94	-0.023260392
94	0xbd51f291	-0.05125672
95	0xbc40071a	-0.011720443
96	0xbd2d4cde	-0.042309634
97	0x3c0c4b9d	0.0085629495
98	0x3d423bc4	0.04742028
99	0xbd59852f	-0.05310553
100	0xbdad4c1b	-0.084617816
101	0x3d86f5d1	0.065898545
102	0x3c00dc19	0.007864975
103	0x3c100410	0.008790031
104	0xbd8f862e	-0.070080146
105	0x3cb0cfc8	0.021583453
106	0x3daa28de	0.08308576
107	0x3d0665b2	0.032811828
108	0x3dbedcee	0.09319483
109	0x3c9bea8a	0.019032735
110	0x3d1c089d	0.03809415
111	0x3d83c7de	0.06434606
112	0xbd932bc1	-0.0718608
113	0xbdbd1a7e	-0.092335686
114	0xbd32245b	-0.043491703
115	0xbd8b01ec	-0.06787476
116	0x3bd486a4	0.006485777
117	0x3d6dd69d	0.058066
118	0x3a385be0	0.00070327334
119	0x3cee2a29	0.029072838
120	0xbda70b43	-0.08156445
121	0x3c15bf27	0.009139813
122	0x3ce3cc2c	0.027807318
123	0x3cd37dea	0.025816876
124	0xbd7542db	-0.05987821
125	0xbd3fbe97	-0.04681262
126	0xbd4c513d	-0.049882162
127	0x3d23855e	0.03992211
128	0xbd2b1d90	-0.04177624
129	0x3d0786c1	0.033087496
130	0xbb8c5c6f	-0.00428348
131	0xbd71342e	-0.058887653
132	0x3d9483ed	0.07251725
133	0xbd1abc17	-0.037777033
134	0xbd3063b4	-0.043063834
135	0x3de88d1e	0.11355041
136	0xbc9250ed	-0.017860854
137	0xbe0bad1f	-0.13640259
138	0x3db4554a	0.0880533
139	0x3d1d811c	0.038453206
140	0x3ced2368	0.028947547
141	0x3cc9f76e	0.024654116
142	0xbd40bdad	-0.04705589
143	0x3cd32cc7	0.025778187
144	0xbc400531	-0.011719988
145	0xbd99a98f	-0.07503044
146	0x3d4aa5c1	0.04947448
147	0xbdfe0367	-0.12402993
148	0x3d22e8ae	0.039772682
149	0x3ba49a5d	0.0050232843
150	0xbc5b4e40	-0.0133853555
151	0x3da150c2	0.078767315
152	0x3c3af630	0.011411235
153	0xbc136b32	-0.008997725
154	0x3dd43f29	0.10363609
155	0x3d915486	0.070962
156	0xbd3d21a3	-0.046174657
157	0xbde18175	-0.1101102
158	0x3c37d664	0.011220548
159	0xbdce3e04	-0.10070422
160	0x39cb24d4	0.00038746616
161	0xbd4f9878	-0.050682515
162	0x3dc2a9b7	0.09505027
163	0xbcdd4d42	-0.027014378
164	0xbd3bdf24	-0.0458671
165	0x3dcbcd02	0.099512115
166	0x3c136328	0.008995809
167	0x3da65053	0.081207894
168	0xbd3d37b7	-0.046195712
169	0x3d3f274e	0.046668343
170	0xbc0f0d6a	-0.0087312255
171	0x3d7d6d41	0.06187177
172	0xbae71d7c	-0.0017632688
173	0x3d1cb6fa	0.038260438
174	0xbc7607c2	-0.015016498
175	0x3db8d7a0	0.09025502
176	0x3dfdffaa	0.1240228
177	0xbb5208cc	-0.00320487
178	0x3c2be422	0.010491403
179	0xbcc06f93	-0.023490703
180	0xbd83d8a2	-0.06437804
181	0xbc3eb200	-0.011639118
182	0x3cf65b3f	0.030072806
183	0x3c34bd9b	0.011031534
184	0xbd809a39	-0.06279416
185	0x3d0b1b43	0.033961546
186	0xbd6b0aa2	-0.057383187
187	0xbd5496a8	-0.05190149
188	0x3d34e7f9	0.04416654
189	0xbd9bfe78	-0.076168954
190	0xbd7303c2	-0.059329756
191	0xbca63c5f	-0.020292459
192	0x3c773236	0.015087655
193	0x3db26962	0.087115064
194	0x3daf1e45	0.08550695
195	0xbca8d5d1	-0.020609768
196	0xbd1acb62	-0.037791617
197	0x3d089acd	0.033350755
198	0x3cad0282	0.02111936
199	0x3dae950b	0.085245214
200	0xbcb4bff0	-0.02206418
201	0x3d95e413	0.07318892
202	0x3c01560a	0.0078940485
203	0x3d3a7281	0.045519356
204	0xbafd7eda	-0.0019340173
205	0xbd059416	-0.03261193
206	0x3d09d135	0.03364678
207	0x3d1eccae	0.038769417
208	0x3b012b08	0.0019709487
209	0x3dd356c3	0.10319283
210	0xbc8b52a0	-0.017007172
211	0xbcdc572a	-0.026897032
212	0xbbfa67f2	-0.007641786
213	0x3dc0392f	0.09385907
214	0x3d2057b5	0.039146144
215	0xbc058f96	-0.008151909
216	0xbd6f01bc	-0.058351263
217	0xbc0a6562	-0.008447023
218	0xbc2b407c	-0.010452386
219	0xbd3e61e7	-0.046480086
220	0x3c1ecb1b	0.009691979
221	0xbcd96cfc	-0.026541226
222	0x3c8c1c54	0.017103352
223	0xbdf7d79f	-0.12101673
224	0xbda6ff72	-0.08154191
225	0xbc762b6d	-0.015025002
226	0xbdb56e78	-0.08858961
227	0x3ddf128c	0.108922094
228	0x3d395d7a	0.04525516
229	0x3d515794	0.05110891
230	0x3d4258db	0.04744802
231	0x3c4d3acd	0.012526226
232	0xbb7be19b	-0.0038434032
233	0x3cf85d88	0.030318037
234	0x3c04cded	0.008105737
235	0xbdaa1b6e	-0.08306013
236	0x3abac2ba	0.0014248707
237	0xbdbceb5b	-0.09224578
238	0xbab11c74	-0.0013512508
239	0x3d9f12f4	0.07767287
240	0x3d7d0a81	0.061777595
241	0xbdcedd2a	-0.101007774
242	0xbc34340a	-0.010998735
243	0xbe07cffc	-0.13262933
244	0xbd2ecb27	-0.04267421
245	0x3d1feaff	0.03904247
246	0xbd7cf1f0	-0.061754167
247	0xbb8f975d	-0.0043820576
248	0x3bdcadcb	0.006734585
249	0xbcef466f	-0.02920839
250	0xbd0fbb32	-0.035090633
251	0xbe03799d	-0.1283936
252	0xbbb7bad0	-0.0056069866
253	0xbc4ca8ed	-0.012491447
254	0x3cc98934	0.024601556
255	0x3d190c46	0.03736522

mu_head.bias f4 [2]
0	0xbd923ae8	-0.07140142
1	0x3c52c1e7	0.012863613

log_std_head.weight f4 [2, 128]
0	0xbda10cf4	-0.07863799
1	0xbcc71e5b	-0.024306467
2	0xbd272fa4	-0.040816918
3	0xbc69986b	-0.014257531
4	0xb9f468f8	-0.00046617514
5	0x3d6848da	0.0567101
6	0x3d3350c9	0.043778215
7	0xbcd668b9	-0.026172983
8	0xbd7d86ff	-0.06189632
9	0xbc44d11d	-0.012012747
10	0x3caf7029	0.021415787
11	0xbd32980d	-0.04360204
12	0xbd76e974	-0.060281232
13	0x3d0b6629	0.034032974
14	0xbd1e6693	-0.03867204
15	0x3cadfa67	0.021237565
16	0xbd300845	-0.042976636
17	0xbcbc36c6	-0.022975337
18	0xbd10d5c1	-0.0353601
19	0xbc90831b	-0.017640641
20	0xbd0f6ffb	-0.035018902
21	0x3d93e295	0.072209515
22	0xbdadbdae	-0.08483444
23	0xbd39b8e4	-0.04534234
24	0x3d3455ad	0.04402702
25	0x3cd04d54	0.025427498
26	0x3c81825c	0.01580923
27	0xbd23f1c3	-0.040025484
28	0x3d0672ee	0.03282445
29	0xbcc29784	-0.023753889
30	0x3ddcf17b	0.10788246
31	0x3cc8915a	0.024483372
32	0x3cc69592	0.024241243
33	0x3d20fdb7	0.03930446
34	0x3d8ef3e6	0.06980114
35	0xbbe8d5a4	-0.007105546
36	0x3d4f65d2	0.050634213
37	0xbcfa9a70	-0.03059122
38	0xbc41df9a	-0.011833096
39	0x3d97bd15	0.074091114
40	0xbc35541a	-0.011067415
41	0xbd6f539a	-0.058429338
42	0xbd0b790f	-0.034050997
43	0xbcd35015	-0.025795022
44	0x3ceae2c6	0.028672587
45	0x3d560b37	0.05225679
46	0x3aa764e3	0.0012771155
47	0xbd09f829	-0.03368393
48	0xbcc8c355	-0.024507204
49	0x3d1fc030	0.039001644
50	0x3d173441	0.036915068
51	0x3d79b3fd	0.060962666
52	0xbcb65ba8	-0.022260502
53	0xbd827641	-0.063702114
54	0xbbc2a8c3	-0.005940528
55	0x3d8719cd	0.06596718
56	0x3afeafe8	0.0019431086
57	0x3c78a771	0.01517664
58	0x3d2d471e	0.04230415
59	0xbcaad0e7	-0.020851566
60	0x3d7e595e	0.062096946
61	0xbcccf954	-0.025021233
62	0xbd3488ef	-0.044075903
63	0xbaf745b8	-0.0018865382
64	0xbd216b0f	-0.03940874
65	0x3c879e7a	0.01655506
66	0xbc9b4801	-0.018955233
67	0xbc81a2ad	-0.01582464
68	0xbd5dd0f9	-0.05415437
69	0xbcaea52d	-0.021318996
70	0x3d284b8e	0.04108768
71	0xbd75c9f6	-0.060007058
72	0x3b0fe362	0.00219556
73	0xbc46361d	-0.012097863
74	0x3d1e2eb0	0.038618743
75	0xba5088da	-0.0007954963
76	0xba93ba22	-0.0011270682
77	0x3c743903	0.014906171
78	0xbdc29286	-0.095006034
79	0xbcb5f6ce	-0.022212412
80	0xbdb50310	-0.08838475
81	0x3cefeb27	0.029286934
82	0xbcd908a6	-0.026493382
83	0x3ca762b5	0.02043281
84	0x3cc9261e	0.024554309
85	0xbcb8f63e	-0.022578355
86	0x3d10c8e1	0.035347823
87	0x3c2ef770	0.010679111
88	0xbcddc862	-0.027073089
89	0x3b475b99	0.0030419587
90	0x3c99338a	0.018701334
91	0xbc442e25	-0.011973892
92	0x3d4693e5	0.048480887
93	0xbd0a22bc	-0.03372453
94	0xbd081d03	-0.033230793
95	0xbd663da5	-0.056211133
96	0x3d5e7941	0.054314855
97	0x3cad8576	0.021181803
98	0xbd083325	-0.0332519
99	0x3c0e605d	0.008689967
100	0xbca646f2	-0.020297501
101	0xbc0fe9e9	-0.008783796
102	0xb6453e00	-2.9391376e-06
103	0xbd0477ec	-0.03234093
104	0xbcd8d7dc	-0.026470117
105	0x3d08da4a	0.0334113
106	0x3bf2eb69	0.007413317
107	0x3d3d581d	0.04622661
108	0x3d03d5b6	0.032186233
109	0xbc6be454	-0.014397699
110	0xbdc3b17c	-0.09555337
111	0xbc17be27	-0.009261644
112	0x3d4189fb	0.04725073
113	0x3c8e9929	0.017407017
114	0xbbba2144	-0.005680235
115	0x3da22769	0.07917673
116	0xbcab8f6d	-0.020942414
117	0xbd2229ee	-0.03959077
118	0x3c84a3de	0.01619142
119	0x3caa9793	0.02082423
120	0xbced9a03	-0.029004103
121	0xbb665ee2	-0.003515177
122	0x3a143f8a	0.000565522
123	0x3c868f19	0.016425656
124	0x3d8d49fc	0.06898877
125	0x3da58908	0.08082777
126	0xbc84c979	-0.01620935
127	0x3d153d50	0.036435425
128	0xbcef6324	-0.029222079
129	0x3c9e966d	0.019358838
130	0xbc8f0905	-0.017460356
131	0xbcc7729b	-0.02434664
132	0xbd392e27	-0.04521003
133	0xbcf383f5	-0.029726008
134	0x3bb2c5a9	0.005455692
135	0xbdaeb7a3	-0.0853112
136	0x3d2e09a8	0.042489678
137	0xbce0072d	-0.027347172
138	0x3c823533	0.015894508
139	0xbcdabdf5	-0.026701907
140	0x3d58d827	0.052940514
141	0xbd0d715c	-0.034531936
142	0x3c7861cc	0.015160035
143	0xbc921e74	-0.017836787
144	0xbd3821d9	-0.044954155
145	0x3d3e1211	0.04640395
146	0x3dd13b7f	0.10216426
147	0x3e010d9a	0.12602845
148	0x3c08ab51	0.008341626
149	0xbd14f3b8	-0.03636524
150	0xbd8a4006	-0.06750493
151	0x3c52fe7a	0.012878055
152	0xbca5e2be	-0.02024972
153	0xbd7479b5	-0.05968638
154	0x3cdb73d3	0.026788628
155	0x3d202e71	0.03910679
156	0xbbf2c505	-0.0074087405
157	0x3dd25faf	0.102721564
158	0xbc6172d1	-0.0137602845
159	0x3d824621	0.06361032
160	0xbd91a598	-0.071116626
161	0xbd413a4c	-0.047174737
162	0xbd94dbf6	-0.07268517
163	0xbd832b4b	-0.06404742
164	0x3e02e170	0.1278131
165	0x3d5d30fb	0.05400179
166	0xbc395e60	-0.011314005
167	0x3cb44a80	0.02200818
168	0x3cc850e4	0.024452634
169	0x3dbc43dd	0.091926314
170	0x3d46689f	0.04843962
171	0x3bdaeca3	0.0066810413
172	0x3cc6608e	0.024215963
173	0xbca0f138	-0.019646272
174	0xbdc4ba3c	-0.09605834
175	0x3d81b47e	0.06333254
176	0xbd1e115c	-0.038590774
177	0xbc9e8052	-0.019348297
178	0x3dc5fea7	0.09667712
179	0xbe0f5449	-0.13996996
180	0xbd421e5c	-0.047392234
181	0xbdb46d0c	-0.088098615
182	0xbdcb4b0a	-0.09926422
183	0xbd4a8f3b	-0.049453
184	0xbc6d96d2	-0.01450129
185	0x3d4ccd4e	0.05000048
186	0x3d628362	0.055301078
187	0xbcbf7056	-0.023368996
188	0x3cad88fd	0.021183485
189	0x3d9db2b7	0.07700103
190	0x3d02f992	0.03197629
191	0x3d0618fa	0.032738663
192	0xbd61d774	-0.055137113
193	0x3cbda12a	0.023148138
194	0xbcd10582	-0.025515322
195	0x3d3e45df	0.046453353
196	0x3d6095f4	0.054830506
197	0xbd29c0ce	-0.04144364
198	0xbcf3d956	-0.02976672
199	0x3df47963	0.11937215
200	0xbd269b67	-0.040675547
201	0xbd020f95	-0.03175314
202	0x3c8023a1	0.01564199
203	0x3babb93f	0.005240589
204	0x3d60d2db	0.054888587
205	0xbbdaf23c	-0.0066817086
206	0x3d1cf75d	0.03832184
207	0x3d6d8fd1	0.057998482
208	0x3cb318da	0.021862436
209	0xbcb1d6a9	-0.021708803
210	0x3d9e8c87	0.07741647
211	0xbc578a40	-0.01315552
212	0xbcf2e8de	-0.029652055
213	0x3c429a49	0.011877605
214	0xbc8ac2cb	-0.016938588
215	0x3c9f1c08	0.019422546
216	0x3c52be4c	0.012862753
217	0x3c91cfcf	0.017799286
218	0x3bf81687	0.007571045
219	0xbcc6f962	-0.024288837
220	0x3c9e42f0	0.019319028
221	0x39d9847e	0.0004148818
222	0xbb7a06a5	-0.0038150933
223	0xbc757f34	-0.014983941
224	0xbd596089	-0.05307058
225	0x3cf631d1	0.030053051
226	0x3d9d51bb	0.076816045
227	0x3ce64fe2	0.028114263
228	0x3db8ad55	0.090174355
229	0x3dd7359c	0.10508272
230	0xbcbddd78	-0.023176894
231	0x3c96bc46	0.018400323
232	0x3d164826	0.0366899
233	0xbd2ecaf4	-0.04267402
234	0xbd2f6207	-0.042818096
235	0x3c9c144e	0.01905265
236	0xbd7933ba	-0.060840346
237	0x3c214c10	0.009844795
238	0xbd6c989e	-0.057762735
239	0xbd1b5af5	-0.03792854
240	0xbd14d9f9	-0.036340687
241	0x3c4210bc	0.01184481
242	0xbcebc0e9	-0.02877851
243	0xbd0181bb	-0.03161786
244	0x3d85805c	0.06518623
245	0xbd33a363	-0.04385699
246	0xbd3c03c4	-0.04590203
247	0x3d5667eb	0.052345198
248	0xbba58b8a	-0.0050520347
249	0x3d55076f	0.052009042
250	0x3c9ce99a	0.019154359
251	0x3c1dc601	0.009629727
252	0xbc9a1b9b	-0.018811991
253	0x3c6d5d13	0.014487523
254	0xbd3eaf4a	-0.046553887
255	0xbd9326c1	-0.07185126

log_std_head.bias f4 [2]
0	0x3cd1c4ca	0.025606532
1	0x3da107be	0.07862805
