MetaDrive-PPO-Agent/ppo_model_try2/ppo_metadrive_model_new.pth (torch, 172287 bytes, 12 tensors)

log_std f4 [2]
0	0xbd9e73f5	-0.07736961
1	0xbd30c0a9	-0.043152485

policy_net.0.weight f4 [64, 259]
0	0x3ce003a1	0.02734548
1	0xbcff4c1a	-0.031164218
2	0xbc765bac	-0.015036505
3	0x3aad9c48	0.0013245428
4	0x3d515121	0.05110276
5	0xbd7a410b	-0.061097186
6	0xbd21f045	-0.03953578
7	0xbb08d15b	-0.0020876739
8	0xbd0099f7	-0.031396832
9	0xbb01c607	-0.0019801871
10	0x3cddde61	0.027083578
11	0xbbe00288	-0.0068362392
12	0x3c7758b4	0.015096832
13	0xbba19f2e	-0.004932306
14	0x3cc37033	0.023857212
15	0x3cd4799b	0.025936892
16	0xbd38367e	-0.044973843
17	0x3d02dca7	0.03194871
18	0xbd483757	-0.0488809
19	0xbbd6e7ce	-0.006558395
20	0xbd0f634d	-0.03500681
21	0x3b8d562f	0.0043132524
22	0xbd37b77c	-0.04485272
23	0xbcccb235	-0.02498732
24	0x3c6db60e	0.014508737
25	0x3ceba742	0.028766278
26	0x3d0b5804	0.034019485
27	0x3c0a1f4a	0.008430311
28	0xbd44dc17	-0.048061457
29	0xbd132587	-0.03592446
30	0xbd0dc106	-0.03460791
31	0xbc88b2db	-0.016686847
32	0xbcad83e3	-0.021181053
33	0x3d20f8fb	0.039299946
34	0xbd3d8e23	-0.04627813
35	0xbd4467f2	-0.047950692
36	0x3cd77211	0.026299508
37	0xbd793e3a	-0.06085036
38	0x3b58b5f0	0.0033067428
39	0x3d3f52b3	0.046709727
40	0xbd1aa7d5	-0.037757713
41	0xbd5bdb8a	-0.053676166
42	0xbd1bb364	-0.038012877
43	0x3c863b24	0.016385622
44	0xbd3497ff	-0.044090267
45	0xbbfe6768	-0.007763792
46	0x3d29375a	0.041312553
47	0x3d096f59	0.033553455
48	0x3d1ca7a2	0.038245805
49	0xbd499317	-0.04921254
50	0x3c2838cc	0.010267448
51	0xbca98dd6	-0.020697515
52	0x3d45aec0	0.048262358
53	0x3d2f6090	0.0428167
54	0xbd0c3f24	-0.034239903
55	0xbcf55186	-0.0299461
56	0xbcb13223	-0.021630352
57	0x3d384baa	0.044994034
58	0x3c31731f	0.01083067
59	0xb9fdbf7a	-0.00048398582
60	0xbb4a0821	-0.00308276
61	0xbc0ad874	-0.008474458
62	0x3d464145	0.04840209
63	0x3c31e6b0	0.010858223
64	0xbc893bfb	-0.016752234
65	0x3cd07a14	0.025448836
66	0xbd780395	-0.06055029
67	0xbc54db6f	-0.01299177
68	0xbd671b11	-0.056422297
69	0xbd5a2389	-0.053256545
70	0xbd20004f	-0.039062794
71	0x3d49b834	0.049247935
72	0xbc68c7f1	-0.014207826
73	0xbd7e1e4a	-0.062040605
74	0xbc79ee23	-0.01525453
75	0x3c9f5637	0.01945029
76	0x3d114f87	0.035476234
77	0xbcfe5e9a	-0.031050969
78	0x3cad1309	0.02112724
79	0xbcd5b171	-0.026085587
80	0xbaa32735	-0.0012447598
81	0x3d53b4b7	0.051686015
82	0x3cdb093f	0.026737807
83	0x3d48d73a	0.04903338
84	0x3d10bded	0.035337377
85	0xbd32beff	-0.04363918
86	0x3d0d8ae8	0.0345563
87	0x3d1edd8c	0.038785502
88	0x3d2a66aa	0.041601814
89	0xbac4d055	-0.0015015701
90	0x3d45e53a	0.04831431
91	0x3c7db2de	0.01548454
92	0xbd41e9fc	-0.047342286
93	0x3c2af3bc	0.010434087
94	0xbc880f94	-0.01660899
95	0x3d24e7d2	0.040260144
96	0x3d4d32a6	0.05009713
97	0x3d20e0ed	0.039277006
98	0xbd051cff	-0.032498356
99	0xbd03d03b	-0.032181006
100	0xbb0688ae	-0.0020528245
101	0xbd747969	-0.0596861
102	0xbb8ab2da	-0.0042327465
103	0x3cb577d6	0.022151869
104	0x3d5ffbae	0.05468338
105	0xbca6edf1	-0.020377131
106	0xbc917626	-0.017756533
107	0xbccfe923	-0.025379723
108	0x3c08a990	0.008341208
109	0x3d4262c0	0.047457457
110	0x3d333047	0.043747213
111	0x3cbd42aa	0.023103077
112	0x3d20fdf7	0.0393047
113	0xbd02943c	-0.03187965
114	0xbd719a97	-0.05898532
115	0x3c391b08	0.011297949
116	0xbd5479be	-0.051873915
117	0xbd52c7d2	-0.051460095
118	0xbd37a1c0	-0.04483199
119	0xbc4c1261	-0.012455554
120	0x3cd2cc4d	0.025732184
121	0x3ca7cb20	0.0204826
122	0xbd3ef427	-0.04661956
123	0xbca9e71e	-0.020740088
124	0x3d49b0d1	0.04924089
125	0xbd517d3d	-0.051144827
126	0xbcfb2a2a	-0.030659754
127	0xbc239193	-0.009983438
128	0x3c525e8e	0.012839926
129	0xbd6d634c	-0.057956025
130	0xbd04b052	-0.032394715
131	0xbc0b192d	-0.008489889
132	0x3cfc80db	0.030823162
133	0x3d6da554	0.058018997
134	0xb9861a4d	-0.00025578067
135	0xbd41722b	-0.04722802
136	0x3cf7b9f7	0.030240042
137	0xbd5a97e0	-0.053367496
138	0xbc5938fd	-0.013258216
139	0x3cf63557	0.030054731
140	0xbd2c69c0	-0.04209304
141	0x3c912b81	0.01772094
142	0x3c1a0c04	0.009402279
143	0xbd58ed5c	-0.05296074
144	0x3c999b59	0.018750833
145	0xbcde90bd	-0.027168626
146	0x3d1c1c1e	0.038112752
147	0xbd7ac0b7	-0.061218943
148	0xbce9865d	-0.028506452
149	0xbc007378	-0.00784003
150	0xbcfd3a23	-0.03091151
151	0x3d11452a	0.03546635
152	0xbd1fc526	-0.039006375
153	0x3c9a0469	0.018800931
154	0x3baa6750	0.005200304
155	0x3d304e64	0.04304351
156	0x3d26caf8	0.04072091
157	0xbd08f3b8	-0.033435553
158	0x3d6f37e4	0.05840291
159	0x3aebdaa7	0.0017994241
160	0x3ce3df2d	0.02781638
161	0xbcd0d971	-0.02549431
162	0x3d4278cc	0.047478482
163	0x3bf1bebb	0.007377473
164	0xbca7eca3	-0.02049858
165	0xbaf283d5	-0.0018502424
166	0x3c7177cf	0.014738037
167	0xbce6eefb	-0.028190127
168	0x3cdd1789	0.026988761
169	0x3d0f70e2	0.035019763
170	0x3b6542c1	0.0034982415
171	0x3d6d0c70	0.05787319
172	0xbd59e0de	-0.053192966
173	0xbd233ece	-0.039854817
174	0x3d3b97ac	0.045798942
175	0xbd3998da	-0.045311786
176	0xbb7dacba	-0.003870769
177	0x3d2076da	0.039175846
178	0xbd63d2bc	-0.055620894
179	0x3b9386d2	0.004502156
180	0xbd71c47d	-0.059025276
181	0xbd2e13b1	-0.042499248
182	0xbcc0799f	-0.023495493
183	0xbd1efd08	-0.03881553
184	0xbd16ee31	-0.03684825
185	0x3d3d04a0	0.04614699
186	0xbcacbc79	-0.021085965
187	0xbd668698	-0.056280702
188	0xbd7669fc	-0.06015967
189	0xba967e55	-0.0011481742
190	0x3c01ddd4	0.007926423
191	0x3ba95d90	0.005168624
192	0x3c47ddd4	0.012198884
193	0xbc3b6d68	-0.011439659
194	0x3b61dc82	0.0034463708
195	0x3cfda7df	0.030963836
196	0x3cdf224d	0.027238036
197	0x3a99431f	0.0011692977
198	0x3d5a9764	0.053367034
199	0xbd6dbda1	-0.058042172
200	0xbd5154d8	-0.051106304
201	0xbc495890	-0.012289181
202	0x3cea877f	0.028629063
203	0x3cce7091	0.02520016
204	0xbd5195cc	-0.051168248
205	0xbd02ffbc	-0.03198217
206	0x3d53f4f0	0.051747262
207	0xbc955743	-0.018230086
208	0x3d6b25b6	0.05740901
209	0xbb84e9d3	-0.0040561943
210	0x3ce093e1	0.027414264
211	0xbd737e78	-0.059446782
212	0x3cd61d5d	0.026137048
213	0x3cbd17a9	0.023082571
214	0x3d13798c	0.036004588
215	0x3cf1273e	0.029437657
216	0x3d4f279e	0.05057489
217	0xbc508b14	-0.012728471
218	0x3d43000c	0.047607467
219	0x3d37d3d4	0.04487975
220	0xbb3845a4	-0.002811768
221	0xbd331126	-0.043717526
222	0xbae5d955	-0.0017536083
223	0xbd4dab6a	-0.0502123
224	0xbd157b54	-0.036494568
225	0x3c5f95bd	0.01364654
226	0xbca29ebd	-0.019851083
227	0xbd51c012	-0.051208563
228	0xbd1ba104	-0.037995353
229	0x3c9dff51	0.019286783
230	0xbc8acc68	-0.016943172
231	0x3af89ff0	0.0018968564
232	0xbc955b6f	-0.018232075
233	0x3c034e64	0.008014295
234	0x3c26750c	0.010159742
235	0xbd64ef84	-0.055892482
236	0xbd6c0c81	-0.057629112
237	0xbcc0b5d1	-0.023524197
238	0x3ba2ee22	0.0049722353
239	0xbd5b3998	-0.053521723
240	0xbd1528d1	-0.03641588
241	0xbd612fd0	-0.05497724
242	0xbc65e594	-0.0140317865
243	0x3d4cd588	0.050008327
244	0xbd6af1b6	-0.05735942
245	0x3d29ea90	0.04148346
246	0xbca7309d	-0.020408923
247	0xbd77b8eb	-0.060479086
248	0x3d58d060	0.052933097
249	0x3d0bf3d4	0.03416808
250	0x3d49d8b0	0.049278915
251	0x3d15e050	0.036590874
252	0x3c04f2ec	0.008114558
253	0xbd80e6f3	-0.0629405
254	0xbd2ae56e	-0.041722707
255	0x3d186608	0.03720668

policy_net.0.bias f4 [64]
0	0x3d411320	0.04713738
1	0xbd269a64	-0.040674582
2	0xbd0fc681	-0.035101417
3	0xbae1c80c	-0.0017225756
4	0x3d3ed750	0.046592057
5	0x3c55c4d0	0.013047412
6	0x3d41f984	0.047357097
7	0xbcaa6bc7	-0.020803345
8	0x3c5cb724	0.0134713985
9	0x3d5c4b97	0.053783026
10	0x3ba07539	0.0048967865
11	0xbd0f6f0e	-0.03501802
12	0x3d773fec	0.060363695
13	0x3bb873b8	0.005629029
14	0xbca80677	-0.020510895
15	0x3d26cd83	0.040723335
16	0xbd891eba	-0.06695314
17	0xbd81d432	-0.06339301
18	0x3c5b0292	0.013367312
19	0xbd243497	-0.040089216
20	0xbd3b2055	-0.04568513
21	0xbb296955	-0.0025850136
22	0x3b9628cc	0.0045825
23	0x3b7cfe61	0.003860377
24	0x3bb38841	0.005478889
25	0x3d7f2587	0.06229165
26	0xbcd2dc12	-0.025739703
27	0xbd52ae33	-0.05143566
28	0xbd4b43bf	-0.049625155
29	0x3d02b832	0.031913944
30	0x3cc88a28	0.02447994
31	0x3ccbd626	0.024882387
32	0x3aabe796	0.0013115283
33	0xbce88076	-0.028381567
34	0xbd172f80	-0.036910534
35	0xbc3ee867	-0.011652089
36	0x3c6b9ca8	0.0143806115
37	0xbd6d64c6	-0.057957433
38	0x3cc825f8	0.024432167
39	0xbb7ae0a8	-0.0038280878
40	0x3c457965	0.0120528685
41	0x3d5dbf91	0.05413777
42	0x3d683ec9	0.0567005
43	0x3d03d8a0	0.03218901
44	0x3d704c58	0.058666557
45	0x3c640a98	0.013918541
46	0xbd2b2e7c	-0.041792378
47	0x3d239d03	0.03994466
48	0xbd0b30d4	-0.033982113
49	0x3d86aed8	0.065763175
50	0xbd5dd61c	-0.05415927
51	0x3d436112	0.047699995
52	0x3c8299c0	0.015942454
53	0xbb8ec4c9	-0.0043569547
54	0xbc964ba3	-0.018346613
55	0xbbe16497	-0.0068784463
56	0xbb6b39b6	-0.0035892553
57	0x3c6e6461	0.014550299
58	0x3d4f3ef0	0.05059713
59	0xbd5c2648	-0.053747445
60	0x38141bb2	3.5311743e-05
61	0x3d6bf3af	0.05760544
62	0x3d10e70a	0.035376586
63	0xbd0b7693	-0.034048628

policy_net.2.weight f4 [64, 64]
0	0x3d4b2cd1	0.049603287
1	0x3d45b0a6	0.04826417
2	0xbd9d499b	-0.07680055
3	0x3cdbec05	0.026845941
4	0x3bcec985	0.006310644
5	0xbbf4a9a0	-0.00746651
6	0x3da3fe07	0.08007436
7	0x3dc5509c	0.09634516
8	0xbd2f173a	-0.04274676
9	0x3d9a5081	0.07534886
10	0x3c375c7b	0.011191483
11	0x3c80a9c5	0.015705952
12	0x3db27260	0.087132215
13	0xbdcadcec	-0.09905419
14	0xbced13b2	-0.028940056
15	0x3d930c65	0.071800984
16	0xbd23a598	-0.039952844
17	0xbba56080	-0.005046904
18	0xbc7fbcf9	-0.015609019
19	0x3de400ca	0.11132963
20	0x3d107048	0.03526333
21	0x3d9aacb9	0.075524755
22	0x3defea56	0.11714618
23	0x3de05b99	0.10954971
24	0xbd307f10	-0.043089926
25	0xbcb41fa3	-0.021987742
26	0x3d0232f8	0.03178689
27	0x3d438b9c	0.047740564
28	0x3dfbd864	0.122971326
29	0xbddbf15f	-0.10739397
30	0x3df676e6	0.12034397
31	0xbdecd153	-0.11563363
32	0xbcbac05e	-0.022796806
33	0xbd9e2f4d	-0.07723866
34	0xbd1833e0	-0.037158847
35	0xbd834a7f	-0.064106934
36	0x3d042dc8	0.032270223
37	0x3c4c4b40	0.012469113
38	0x3de1f9fa	0.11034007
39	0x3d2f7275	0.042833764
40	0x3d99e86d	0.07515035
41	0x3dead5ee	0.11466585
42	0x3cf53231	0.02993116
43	0x3c8d35b3	0.01723752
44	0xbdac28e1	-0.084062345
45	0xbdcfb039	-0.10141034
46	0xbc9c2c76	-0.01906417
47	0xbd945d7d	-0.07244394
48	0xbd95fdc6	-0.07323794
49	0xbd665138	-0.0562298
50	0x3c792b18	0.015208028
51	0xbda8f268	-0.0824936
52	0xbd50e778	-0.051001996
53	0xbdd57cb2	-0.10424174
54	0xbd9ded85	-0.07711319
55	0xbc5f1aa0	-0.013617188
56	0xbcfe6f6a	-0.031058986
57	0xbaa14f51	-0.0012306963
58	0x3de7f788	0.1132651
59	0xbdd1c624	-0.102428705
60	0xbd4b97b7	-0.049705233
61	0xbcb3389f	-0.021877585
62	0x3d8789c4	0.066180736
63	0x3dd2434b	0.10266741
64	0x3dbe4cbe	0.09291981
65	0x3dcc6d29	0.09981758
66	0xbd2fd907	-0.042931583
67	0x3ddda41b	0.10822316
68	0xbd67a70a	-0.056555785
69	0x3bf4f760	0.0074757785
70	0x3db3e003	0.08782961
71	0xbca1ae18	-0.019736335
72	0xbd33b05e	-0.04386937
73	0xbd12d222	-0.03584493
74	0x3dcf60d4	0.101258904
75	0x3c94f6b5	0.018184045
76	0x3dcfc3f0	0.10144794
77	0xbd12cb88	-0.035838634
78	0xbcd96174	-0.026535727
79	0x3d447b34	0.04796906
80	0x3c05ef20	0.008174688
81	0x3d8f9654	0.07011095
82	0x3d5f3c36	0.05450078
83	0x3dee8fc0	0.11648512
84	0x3deecfd8	0.11660737
85	0x3dc2037e	0.09473322
86	0x3d79b6f7	0.060965504
87	0xbd98b0a2	-0.07455565
88	0xbd9b6970	-0.0758847
89	0x3d060588	0.03272012
90	0xbd1ed73d	-0.038779486
91	0x3da2b84a	0.079453066
92	0x3b5e4fc0	0.0033922046
93	0x3deb6897	0.11494558
94	0xbdf3c4d3	-0.119027756
95	0xbcd2b746	-0.025722157
96	0xbce366d4	-0.027758993
97	0xbdfc2f75	-0.12313739
98	0x3c093090	0.008373395
99	0xbdd64442	-0.10462238
100	0xbd6c0024	-0.05761732
101	0xbdc2665f	-0.09492182
102	0xbd58834f	-0.0528596
103	0xbd8dabe7	-0.069175534
104	0x3d2c3095	0.04203852
105	0xbddab1ab	-0.10678419
106	0x3d39d845	0.045372266
107	0x3b46e6ee	0.0030350047
108	0xbd399022	-0.04530347
109	0xbdc5ac65	-0.09652022
110	0xbde1e15b	-0.11029311
111	0x3bffbd3d	0.0078045414
112	0x3a50f300	0.000797078
113	0xbd68ca7a	-0.05683372
114	0xbd846544	-0.064646274
115	0xbd6f15c0	-0.05837035
116	0xbdb7545c	-0.08951637
117	0x3c1a9d43	0.009436908
118	0x3cf1d9aa	0.029522736
119	0x3dd7a2e6	0.10529117
120	0x3d03d0e9	0.032181654
121	0xbdd32eb1	-0.1031164
122	0x3dbc1cd9	0.0918519
123	0xbda48589	-0.08033282
124	0xbdbae293	-0.09125247
125	0x3d2c6ce6	0.04209604
126	0x3d78201a	0.06057749
127	0x3c8c0b10	0.017095119
128	0x3ae639ef	0.0017564873
129	0x3c6dc924	0.014513288
130	0x3dd97c7c	0.10619447
131	0xbca6a8b8	-0.020344123
132	0xbe00633d	-0.12537856
133	0xbc1469a0	-0.009058386
134	0x3dc8e063	0.09808423
135	0xbda955c0	-0.08268309
136	0x3d3b28fb	0.04569338
137	0xba6e792d	-0.0009097036
138	0xbd1ced8a	-0.038312472
139	0x3d3d6c18	0.046245664
140	0xbb55a774	-0.003260103
141	0xbda91856	-0.08256595
142	0xbcddaa2e	-0.027058687
143	0x3d005413	0.03133018
144	0x3d286920	0.04111588
145	0x3df10175	0.11767856
146	0xbc8626c9	-0.016375916
147	0x3c2e1140	0.01062423
148	0x3d4c5ad8	0.049891323
149	0x3c25b385	0.010113602
150	0xbde170ee	-0.11007868
151	0x3c768afc	0.015047785
152	0x3da05818	0.078293025
153	0xbdf7868f	-0.12086212
154	0xbda6080c	-0.081070036
155	0x3c9b01d8	0.018921778
156	0xbd15fd84	-0.036618724
157	0xbd5c0867	-0.05371895
158	0xbdd06806	-0.10176091
159	0xbb4ad278	-0.0030948203
160	0x3d2f6c72	0.04282803
161	0xbc4da275	-0.01255094
162	0xbd765c60	-0.06014669
163	0xbdcc219c	-0.09967348
164	0x3d260274	0.040529683
165	0xbd0a5844	-0.033775583
166	0xbd4c239f	-0.04983866
167	0x3c9c66dc	0.019092016
168	0xbd17defb	-0.037077885
169	0x3d8511ec	0.06497559
170	0xbd5780d1	-0.052613083
171	0xbc904b33	-0.017613983
172	0xbd1f40f4	-0.038880304
173	0xbde24616	-0.11048524
174	0x3dccbdc4	0.099971324
175	0xbd9ed36d	-0.0775517
176	0xbca97ca8	-0.020689324
177	0x3cfaa00f	0.0305939
178	0x3df1f26e	0.11813818
179	0xbd8cc460	-0.06873393
180	0x3dd7964d	0.105267145
181	0x3cdf4383	0.027253872
182	0xbbe8c45c	-0.007103486
183	0xbd903d18	-0.07042903
184	0xbdb1f7f2	-0.0868987
185	0x3d965343	0.073401
186	0xbd804708	-0.06263548
187	0x3c5649ed	0.013079149
188	0x3ca427dc	0.020038538
189	0x3dc7978f	0.097457044
190	0xbd30e469	-0.04318658
191	0x3cede2d9	0.029038833
192	0x3d9644e2	0.07337357
193	0x3d91638f	0.070990674
194	0xbd1909c8	-0.037362844
195	0xbc1e538b	-0.009663473
196	0x3d8df1e6	0.06930904
197	0x3d109924	0.035302296
198	0xbcbc27a8	-0.022968128
199	0x3d83bd93	0.06432643
200	0xbd002073	-0.031280946
201	0xbd96acaa	-0.07357152
202	0xbdce2bb2	-0.10066928
203	0xbdcea6a6	-0.100903794
204	0xbdce8261	-0.100834616
205	0x3d8ffe47	0.070309214
206	0xbdd91bac	-0.10600981
207	0xbdcec04f	-0.10095274
208	0x3dd957cb	0.10612448
209	0xbd9bc46e	-0.07605825
210	0xbbb7eff0	-0.0056133196
211	0xbcce62f8	-0.025193676
212	0xbda6d51a	-0.08146115
213	0x3db4bced	0.08825097
214	0xbd4e7ee6	-0.05041399
215	0xbd52697d	-0.051370133
216	0x3d7708d0	0.06031114
217	0xbdc5ab8b	-0.0965186
218	0xbdb17ea6	-0.086667344
219	0x3d101d3c	0.03518413
220	0x3dfc6220	0.12323403
221	0x3d6353d6	0.055499874
222	0x3cffe934	0.03123913
223	0xbd0e3a92	-0.034723826
224	0xbbedff00	-0.0072630644
225	0x3bfc7ec0	0.0077055395
226	0x3ca421e8	0.020035699
227	0x3d95c79f	0.07313465
228	0xb97fb800	-0.0002438724
229	0xbdc8cf7c	-0.098051995
230	0xbccf4688	-0.025302187
231	0x3d99c4e8	0.0750826
232	0x3d94e36e	0.07269941
233	0x3cdc0326	0.02685697
234	0x3d364274	0.04449697
235	0x3c51f44d	0.0128145935
236	0x3cb31c48	0.021864071
237	0x3c7637dd	0.015027967
238	0x3d1e4d2a	0.038647808
239	0x3d46c9ef	0.048532423
240	0x3c574760	0.013139576
241	0x3db0d750	0.086348176
242	0xbdc52dcf	-0.09627878
243	0xbdf89542	-0.12137844
244	0xbdca08fb	-0.09864994
245	0xbda9bea2	-0.082883134
246	0xbc5c07e3	-0.013429615
247	0x3d9ce204	0.076602966
248	0x3c98f931	0.018673511
249	0x3d7009c6	0.05860307
250	0xbdccfbcc	-0.10008964
251	0xbd3fbb20	-0.046809316
252	0xbded359e	-0.11582492
253	0xbd24ad9e	-0.040204637
254	0xbd86f824	-0.06590298
255	0xbdf7bf7d	-0.1209707

policy_net.2.bias f4 [64]
0	0xbba238bd	-0.0049506114
1	0x3ba3fc05	0.0050044083
2	0x3dc1ee14	0.09469238
3	0xbd027c1f	-0.031856652
4	0xbd8a73f4	-0.067603976
5	0x3caf44ac	0.02139505
6	0x3da7fc2e	0.08202396
7	0xbd3afcd9	-0.04565129
8	0xbd9485f0	-0.07252109
9	0xbddcd712	-0.10783209
10	0x3dda51b4	0.10660115
11	0xbd122d7b	-0.035687905
12	0xbc1b92f2	-0.009495484
13	0x3d89c634	0.06727257
14	0x3d9bacd1	0.076013215
15	0xbdc3154e	-0.09525548
16	0x3cf0b474	0.029382922
17	0x3c868941	0.01642287
18	0xbdbb30d2	-0.09140171
19	0x3d5e9460	0.05434072
20	0xbbcd95d6	-0.0062739654
21	0xbd70e158	-0.058808655
22	0x3d30b4be	0.04314112
23	0x3d6bffde	0.05761706
24	0x3d844f7e	0.064604744
25	0x3ce985cb	0.02850618
26	0xbdd1b0fc	-0.10238835
27	0xbdc5e564	-0.096628934
28	0xbd329db3	-0.043607425
29	0xbd9abd3d	-0.075556256
30	0xbd0c588f	-0.034264144
31	0xbd4b3b11	-0.049616877
32	0xbe01fafd	-0.126934
33	0x3bd0266c	0.0063522365
34	0x3dca43fe	0.0987625
35	0x3d8b85af	0.068126075
36	0xbd8c8f3c	-0.06863257
37	0xbd2fb708	-0.04289916
38	0xbdba37c7	-0.0909267
39	0xbae23bac	-0.0017260215
40	0x3db2d1d1	0.087314256
41	0x3cc80c13	0.02441982
42	0xbdf03414	-0.11728683
43	0x3d9b64be	0.075875744
44	0x3d7e994c	0.062157914
45	0xbde2884e	-0.11061154
46	0x3dd7c8ba	0.105363324
47	0xbd8ca3ef	-0.06867205
48	0x3d33860e	0.043829016
49	0xbde3add2	-0.11117138
50	0xbdc2ccc6	-0.09511714
51	0x3d8e4bae	0.069480285
52	0x3c4b29b1	0.012400077
53	0xbddd0c92	-0.10793413
54	0x3c4eba11	0.012617604
55	0x3dd26242	0.102726474
56	0x3c754b30	0.014971539
57	0x3db3fe9e	0.08788799
58	0xbd0bfb91	-0.03417546
59	0xbd45688e	-0.048195414
60	0xbc99e74c	-0.018787049
61	0xbce892b1	-0.02839026
62	0xbdc22733	-0.09480133
63	0xbc836a81	-0.016041996

policy_net.4.weight f4 [2, 64]
0	0x3d8a44c5	0.06751398
1	0x3d672608	0.056432754
2	0x3dbb34b6	0.09140913
3	0xbcd51790	-0.026012212
4	0xbd834c3a	-0.064110234
5	0xbd075246	-0.033037446
6	0x3d82077b	0.06349083
7	0xbdbed75a	-0.09318419
8	0xbdfcb6f5	-0.12339584
9	0x3dc055b9	0.0939135
10	0xbd57310c	-0.05253701
11	0x3d80bbe7	0.062858395
12	0x3d627909	0.05529121
13	0x3c86bb2f	0.016446678
14	0xbd93c830	-0.07215917
15	0x3dc85257	0.0978133
16	0x3c037cbc	0.008025344
17	0xbd44f06d	-0.04808085
18	0xbdca22ae	-0.09869896
19	0x3dcb2dca	0.09920843
20	0x3d8cd76b	0.06877025
21	0xbcd9e552	-0.026598606
22	0xbdf80e33	-0.12112083
23	0x3c0021c5	0.007820551
24	0xbc37482c	-0.011186641
25	0x3db0c36b	0.08631023
26	0x3c82f7f0	0.015987366
27	0x3cac1da0	0.02101022
28	0xbda5e43f	-0.08100175
29	0x3c0a1ea2	0.008430155
30	0xbdb98bc3	-0.090598606
31	0x3d54c1e1	0.05194271
32	0x3dc901d7	0.09814804
33	0xbd9ddc39	-0.0770802
34	0xbda895c3	-0.0823169
35	0x3dbcac91	0.09212602
36	0x3d962591	0.07331384
37	0xbdc9d14e	-0.09854375
38	0x3d84093a	0.06447072
39	0x3d7c130e	0.06154161
40	0xbd74bec3	-0.059752237
41	0x3de06f79	0.10958762
42	0xbd5472c0	-0.051867247
43	0x3dd1abbd	0.102378346
44	0xbdf875e2	-0.12131859
45	0xbd185e43	-0.03719927
46	0xbdfbafab	-0.122893654
47	0x3d5ed1ca	0.05439929
48	0x3dbc3693	0.09190097
49	0x3c9a3090	0.018821985
50	0xbde75d86	-0.11297135
51	0xbc9369f7	-0.017994864
52	0x3d7497c1	0.059715036
53	0x3dd178d8	0.10228127
54	0xbdd8000b	-0.10546883
55	0xbb90cdf1	-0.0044190814
56	0x39b6f95f	0.0003489954
57	0x3db211b0	0.0869478
58	0x3d80bab1	0.062856086
59	0xbda2ef49	-0.07955796
60	0xbd4558b1	-0.048180286
61	0x3d2f226b	0.042757433
62	0x3ba31c59	0.0049777445
63	0xbd59bca4	-0.053158417
64	0x3daff283	0.08591177
65	0xbdafb553	-0.08579507
66	0xbdba308e	-0.09091292
67	0x3d83dea4	0.0643895
68	0x3b8d376f	0.0043095867
69	0x3d92c173	0.07165804
70	0x3dc62baf	0.09676301
71	0x3da5c468	0.08094102
72	0xbdbc5645	-0.09196142
73	0x3d98e9d4	0.07466474
74	0x3cc81cb7	0.024427755
75	0xbda9ab9e	-0.082846865
76	0xbd56f23e	-0.052477114
77	0x3da51d9c	0.08062288
78	0xbd8dc3e4	-0.06922129
79	0x3d8d5af6	0.06902115
80	0x3dea25a9	0.11432964
81	0xbd4bd10d	-0.049759913
82	0xbda9a9f3	-0.08284368
83	0x3d8bf948	0.06834656
84	0xbdc50da7	-0.096217446
85	0xbdcd6fd7	-0.100310974
86	0xbd19bb28	-0.037532
87	0x3baa1cbb	0.005191413
88	0x3db77e8d	0.089596845
89	0xbdc3761b	-0.09544011
90	0xbdc57800	-0.09642029
91	0xbd925eba	-0.07146974
92	0xbd1ce2a2	-0.03830207
93	0x3d71f052	0.059067078
94	0x3e09c207	0.13452922
95	0xbc4cbb76	-0.012495866
96	0x3c1e1d9d	0.009650615
97	0x3d8d16e4	0.06889132
98	0xbca98f36	-0.020698171
99	0xbdd005e6	-0.10157375
100	0x3c826c56	0.0159208
101	0xbdc0120b	-0.093784414
102	0x3d60cd06	0.054883026
103	0x3e0445e6	0.12917289
104	0x3db0e045	0.08636526
105	0x3d8465d2	0.06464733
106	0x3dd68e6e	0.10476385
107	0xbd942da7	-0.0723527
108	0xbd054ebf	-0.0325458
109	0xbcc1e103	-0.023666864
110	0x3db6748b	0.089089476
111	0x3e06445d	0.13112016
112	0x3d94b4b1	0.07261027
113	0x3dbb431c	0.091436595
114	0x3de7b9d6	0.11314742
115	0x3e15dff8	0.14636219
116	0x3dfb8754	0.12281671
117	0xbd8c4c2a	-0.06850465
118	0xbc7059e6	-0.014669871
119	0xbdc1c8b2	-0.09462108
120	0xbd184d2e	-0.03718298
121	0x3dfd960b	0.12382134
122	0x3d0541a8	0.032533318
123	0x3cd1aabb	0.025594106
124	0x3bd62a7c	0.0065358263
125	0x3c4883e2	0.012238475
126	0x3d1a8d54	0.037732437
127	0x3d9f1e9c	0.0776951

policy_net.4.bias f4 [2]
0	0x3df3c6fb	0.11903187
1	0xbc2a3ba7	-0.010390199

value_net.0.weight f4 [64, 259]
0	0xbd4ae7c6	-0.049537443
1	0x3d501bf0	0.050807893
2	0xbd296b06	-0.04136183
3	0xbc075220	-0.008259326
4	0x3b545541	0.0032399448
5	0xbc1bbb15	-0.009505053
6	0xbc84526a	-0.01615258
7	0xbd3a1977	-0.04543444
8	0xbc180a7e	-0.009279845
9	0x3d1111c9	0.035417352
10	0x3d3bdbd0	0.045863926
11	0x39795100	0.00023776665
12	0x3d3c67f0	0.04599756
13	0xbd3905ba	-0.045171477
14	0xbd4892a3	-0.04896797
15	0xbd10ac96	-0.03532084
16	0xbca2ecac	-0.019888245
17	0x3d30996e	0.043115072
18	0xbd6ba882	-0.05753375
19	0x3d322de8	0.04350081
20	0x3d37b6ab	0.04485194
21	0x3d48a27d	0.048983086
22	0x3c934183	0.017975574
23	0xba2fd7a4	-0.0006707853
24	0xbd219f9f	-0.039458867
25	0xbc946b08	-0.018117443
26	0xbc069e6c	-0.008216482
27	0x3d0a2a2e	0.033731632
28	0xbcc6418d	-0.024201179
29	0x3cdd837d	0.027040238
30	0x3d3af858	0.045646995
31	0x3ce688bd	0.028141374
32	0xbd26d4c6	-0.04073026
33	0xbc3ae876	-0.011407962
34	0x3d38def7	0.04513451
35	0x38d19888	9.994308e-05
36	0xbaed8135	-0.0018120172
37	0xbd4d8b91	-0.05018193
38	0x3cc8bd31	0.024504276
39	0xbd82d5c3	-0.06388428
40	0xbcd01bb8	-0.025403842
41	0xbd0a9bc3	-0.033839952
42	0x3d3f5c42	0.046718843
43	0xbd76a6ae	-0.060217552
44	0xbd7bb04b	-0.061447423
45	0x3d1c3932	0.038140483
46	0x3d144614	0.036199644
47	0xbd545c42	-0.051845796
48	0x3c86cfef	0.016456572
49	0x3b3d94ad	0.002892773
50	0xbbc2c837	-0.0059442776
51	0xbd030503	-0.0319872
52	0x3d0a44b7	0.033756938
53	0xbc7b8e39	-0.015353733
54	0xbd7b2dc9	-0.06132296
55	0x3bb4847e	0.0055089584
56	0xbcdd3513	-0.027002847
57	0x3cc191fc	0.023629181
58	0x3be9b303	0.0071319356
59	0xbafaef24	-0.0019144756
60	0xbc25e64a	-0.010125706
61	0xbc351ea5	-0.0110546695
62	0xbd27c0ae	-0.040955238
63	0xbc648268	-0.013947107
64	0xbbec1cd3	-0.0072055846
65	0xbae3175e	-0.001732569
66	0xbd151d68	-0.036404997
67	0xbd321d89	-0.0434852
68	0x3ca3db65	0.020002076
69	0xbd6e92c6	-0.058245443
70	0x3930d86c	0.00016865291
71	0xbd2a5735	-0.041587073
72	0xbb532573	-0.0032218366
73	0x3d2b50bc	0.04182504
74	0xbb0c0090	-0.002136264
75	0x3c627ce8	0.013823725
76	0xbb4e78d0	-0.0031505115
77	0xbc19ee51	-0.009395198
78	0xbd76111b	-0.060074907
79	0x3c791d45	0.015204732
80	0x3d021665	0.03175964
81	0x3c39dd05	0.011344199
82	0x3c47ff3f	0.0122068515
83	0xbd7ee57a	-0.062230565
84	0xbd3897f9	-0.045066807
85	0xbd300578	-0.042973965
86	0xbce7b905	-0.028286466
87	0xbcb23d72	-0.021757815
88	0x3d500eca	0.050795354
89	0xbd416051	-0.047210995
90	0x3b82295d	0.003972216
91	0xbd241750	-0.040061295
92	0xbc8f3f9f	-0.017486392
93	0xbd43a4d5	-0.047764618
94	0x3d0033b9	0.031299327
95	0xbd18d041	-0.03730798
96	0xbd838c4b	-0.06423243
97	0xbcbf78a9	-0.023372965
98	0xbd79cdde	-0.060987346
99	0x3cd605a3	0.026125735
100	0x3d55d631	0.052206222
101	0xbd75cd70	-0.060010374
102	0xbcb8f6d4	-0.022578634
103	0x3cee1ba8	0.029065922
104	0xbbde99e4	-0.0067932475
105	0xbd097180	-0.033555508
106	0xbd34a951	-0.044106785
107	0x3c95386f	0.018215386
108	0x3cffcfa3	0.031226939
109	0xbd63bf3b	-0.055602293
110	0xbc95662a	-0.018237192
111	0x3a36b630	0.0006969897
112	0xbcae24de	-0.021257814
113	0xbc4cc9dd	-0.0124993
114	0xbd5d7adb	-0.054072242
115	0xbc93d0ce	-0.018043902
116	0xbd83fd28	-0.0644477
117	0xbd70aa38	-0.058756083
118	0xbd44f0bc	-0.048081145
119	0xbd6de13a	-0.05807612
120	0x3d338b08	0.043833762
121	0x3c954ab9	0.018224107
122	0x3beda3d0	0.007252194
123	0x3aac5a18	0.0013149409
124	0xbd25edcd	-0.040509988
125	0x3c3c68b3	0.011499572
126	0x3c72712d	0.014797491
127	0x3d6ab9e9	0.057306204
128	0xbb806004	-0.003917696
129	0xbce1fa25	-0.027585099
130	0x3d186302	0.037203796
131	0xbccf10e9	-0.025276618
132	0x3b44dabb	0.00300376
133	0x3c4e8ca0	0.01260677
134	0xbd53144b	-0.051533025
135	0xbca0f3cd	-0.019647503
136	0x3d579732	0.052634425
137	0x3d61b68c	0.05510573
138	0xbc7d6610	-0.015466228
139	0xbd314f16	-0.043288313
140	0x3bdf673d	0.006817727
141	0xbc2145c6	-0.009843295
142	0x3c227c68	0.009917356
143	0x3d708758	0.058722824
144	0xbd82fc7d	-0.063958146
145	0x3b472cfb	0.00303918
146	0x3b9f5c3f	0.0048632915
147	0x3d245af4	0.040125802
148	0x3d50681c	0.050880536
149	0xbd20ed2c	-0.039288685
150	0x3cc116f1	0.02357051
151	0xbd168554	-0.036748245
152	0x3d0e205a	0.03469882
153	0xbc3d6088	-0.011558659
154	0xbb5c6cf7	-0.0033634284
155	0xbcad7b7b	-0.021177044
156	0xbd37fca0	-0.044918656
157	0x3cc36bc5	0.0238551
158	0xbb4a7455	-0.0030892093
159	0x3d1c4dd4	0.03816016
160	0x3c991949	0.018688815
161	0x3d5f0ccc	0.054455563
162	0x3c3eb568	0.01163993
163	0xbd812cc1	-0.06307364
164	0x3d29fc4e	0.041500382
165	0x3d0a04e2	0.033696063
166	0x3d6d3c20	0.057918668
167	0xbaf6e50e	-0.0018836574
168	0xbd2063ef	-0.039157804
169	0xbc93c033	-0.018035984
170	0x3d4e0752	0.05029995
171	0x3cd71645	0.026255736
172	0x3cd3b3cd	0.025842572
173	0x3d388b44	0.04505469
174	0xbcd9da5b	-0.026593378
175	0xbadc004d	-0.0016784758
176	0xbc3a9e50	-0.011390284
177	0xbb08cba7	-0.002087334
178	0xbd25ed99	-0.040509794
179	0xbd0f239e	-0.034946077
180	0x3c08c6f8	0.008348219
181	0x3d6682f8	0.056277245
182	0x3c5c6c08	0.013453491
183	0xbd055672	-0.032553144
184	0xbd3d1918	-0.04616651
185	0xbb047446	-0.0020210906
186	0x3d3c60ee	0.045990877
187	0x3c35ba00	0.011091709
188	0x3ca39d65	0.019972512
189	0x3cb5e489	0.0222037
190	0xbcfcedb9	-0.030875074
191	0x3d2800c6	0.041016363
192	0x3d4442ae	0.047915153
193	0xbce26dcf	-0.027640251
194	0xbd4dcff0	-0.050247133
195	0x3c904705	0.01761199
196	0xbd61f10b	-0.055161517
197	0xbce575a3	-0.028010195
198	0xbcf5bb6b	-0.029996594
199	0x3d38f104	0.045151725
200	0x3cdbc875	0.026828984
201	0x3d2c90a0	0.042130113
202	0x3ccf9309	0.025338667
203	0x3d0542b8	0.03253433
204	0xbb8c4c7d	-0.004281579
205	0x3d39401c	0.045227155
206	0xbd4b0e51	-0.0495742
207	0x3c3e7130	0.011623666
208	0xbb4da605	-0.0031379473
209	0xbab16d0d	-0.0013536528
210	0x3cd0a29d	0.025468165
211	0xbd52980b	-0.05141453
212	0x3d6d768e	0.05797439
213	0xbd5bd164	-0.053666487
214	0xbba79715	-0.005114446
215	0xbcc222e3	-0.023698276
216	0xbc8065c5	-0.015673527
217	0x3d0ac2e0	0.033877254
218	0x3c680c3c	0.014163073
219	0xbd103ed6	-0.035216175
220	0xbd65337b	-0.0559573
221	0xbd464a12	-0.048410483
222	0xbceb90dd	-0.0287556
223	0xbc1410c6	-0.009037202
224	0xbd824afd	-0.06361959
225	0x3c328110	0.010895029
226	0xbd2efc6e	-0.042721204
227	0xbc89bfdd	-0.01681512
228	0xbd7c6a19	-0.06162462
229	0xbce02ad5	-0.027364174
230	0x3cda0661	0.02661437
231	0xbcc105bd	-0.023562307
232	0xbcf8e637	-0.030383212
233	0x3be9e62b	0.007138034
234	0x3b9917bf	0.00467202
235	0x3caaad19	0.020834493
236	0x3d3ee9e4	0.046609774
237	0x3d15f622	0.036611684
238	0x3ca9daf1	0.020734282
239	0x3c594858	0.013261877
240	0xbd852bb9	-0.0650248
241	0xbd46c95c	-0.048531875
242	0xbca9e755	-0.02074019
243	0x3d0829f4	0.033243135
244	0x3b96fdaf	0.004607878
245	0xbc6f481c	-0.014604595
246	0x3c904ba1	0.017614188
247	0xbd764293	-0.060122084
248	0xb9a6f435	-0.00031843936
249	0xbd432540	-0.047642946
250	0xbd106d87	-0.035260703
251	0x3be8b3cb	0.007101511
252	0x3ba0898f	0.0048992108
253	0xbd28bdf6	-0.041196786
254	0x3d26014e	0.040528588
255	0x3c111748	0.008855648

value_net.0.bias f4 [64]
0	0x3bc8f6fb	0.006132958
1	0x3dc6b571	0.09702576
2	0x3d27024c	0.040773675
3	0x3db5301c	0.08847067
4	0x3cb39b94	0.021924771
5	0x3de01451	0.10941375
6	0x3cc23305	0.023705969
7	0x3cd5dea7	0.026107145
8	0x3dd5cbd8	0.10439271
9	0x3d79c8c3	0.060982477
10	0x3d295f86	0.041350864
11	0x3cdf6941	0.027271869
12	0x3d9001ea	0.07031615
13	0x3d054a44	0.03254153
14	0x3d8f0116	0.06982629
15	0xbd0eca1a	-0.034860708
16	0x3caea058	0.021316692
17	0x3d4ffda3	0.050778996
18	0x3ca7f5c4	0.020502932
19	0x3d03e0cb	0.0321968
20	0x3d700de4	0.058606997
21	0x3d4880ad	0.04895084
22	0x3d9dfaa4	0.077138215
23	0x3ddca59f	0.10773777
24	0x3d083979	0.033257935
25	0x3d14bc34	0.036312297
26	0xbce42f14	-0.02785448
27	0x3df12c23	0.117759965
28	0xbd3d210c	-0.046174094
29	0x3d8a7cc0	0.067620754
30	0x3dedb239	0.11606259
31	0x3cb97f66	0.022643756
32	0x3ce3e323	0.027818268
33	0x3df00af4	0.11720839
34	0x3da2d7a8	0.079512894
35	0xbc25a316	-0.0101096835
36	0x3dbbd476	0.09171383
37	0x3e0c2569	0.13686146
38	0xbd68fc76	-0.05688139
39	0xbd2a6b0e	-0.041606
40	0x3d86d239	0.065830655
41	0x3d049930	0.032372653
42	0xbd7aaf55	-0.061202366
43	0x3d0fdb02	0.03512097
44	0x3baa7e9c	0.0052030813
45	0x3e07277e	0.13198659
46	0x3dbbb9d9	0.09166307
47	0xbd004fee	-0.031326227
48	0xbc86541c	-0.016397528
49	0x3d02c3b6	0.031924926
50	0x3d18d72e	0.037314586
51	0x3d1c869d	0.038214315
52	0xbce907fc	-0.02844619
53	0xbd36e39b	-0.044650655
54	0x3d0b4fb0	0.034011543
55	0x3ce84e6d	0.028357709
56	0x3ca4a923	0.020100182
57	0x3da944a6	0.08265047
58	0x3d6c33c4	0.057666555
59	0x3e00e3bd	0.12586875
60	0x3e003fe4	0.12524372
61	0x3dae4a5e	0.08510278
62	0xbcf960a3	-0.030441588
63	0x3d8d2c55	0.06893221

value_net.2.weight f4 [64, 64]
0	0xbdd356aa	-0.10319264
1	0x3e1f06fc	0.15530008
2	0x3c524140	0.01283294
3	0xbc57991f	-0.0131590655
4	0x3e3ad1cd	0.18244095
5	0x3dd2041e	0.102546915
6	0xbb9a7346	-0.0047134487
7	0x3e24504b	0.16046254
8	0x3da98372	0.08277024
9	0x3db6e8ba	0.08931108
10	0xbdc1205c	-0.0943
11	0xbd8b9b53	-0.06816735
12	0x3e047a9d	0.12937398
13	0x3d875963	0.06608846
14	0x3b454a7b	0.0030104208
15	0x3da86e52	0.08224167
16	0x3d0abc62	0.033871062
17	0xbdd4b2b6	-0.10385649
18	0x3d91df6e	0.07122694
19	0x3d71fab2	0.059076972
20	0xbccd23b9	-0.025041448
21	0x3d657f0f	0.056029376
22	0xbd645fda	-0.055755474
23	0x3e230403	0.15919499
24	0x3e14506f	0.14483808
25	0x3db970ef	0.090547435
26	0xbdf69d4d	-0.120417215
27	0x3e23ceb4	0.1599682
28	0x3d59fbf4	0.053218797
29	0xbd60373b	-0.054740172
30	0xbd0c49ac	-0.034249946
31	0x3daa013d	0.083010174
32	0x3e00cac8	0.12577355
33	0x3dab9d26	0.08379583
34	0x3dfce308	0.1234799
35	0xbdc2c0cf	-0.095094316
36	0x3dcaccbf	0.099023335
37	0x3dff89a8	0.12477428
38	0xbd669c16	-0.0563012
39	0xbd2a9870	-0.041649282
40	0x3e0d88f8	0.1382178
41	0xbd5afb88	-0.053462535
42	0x3c57ffdf	0.013183563
43	0x3dee8309	0.11646087
44	0x3d846bb5	0.06465856
45	0x3e13a121	0.14416935
46	0x3e159b5c	0.14610046
47	0x3dbbbd90	0.091670156
48	0xbd9f236c	-0.07770428
49	0x3d489fb4	0.04898043
50	0xbccc39bd	-0.024929876
51	0x3e0d0a3b	0.13773434
52	0x3df83aca	0.12120588
53	0xbd8776a6	-0.06614427
54	0xbdc995b6	-0.09843008
55	0x3decfd5e	0.115717635
56	0x3dd57fa3	0.104247354
57	0xbd26fdb9	-0.040769313
58	0xbc4dc9a0	-0.012560278
59	0x3e2bee63	0.16790156
60	0x3dd0e79a	0.102004245
61	0x3d130f2e	0.03590315
62	0x3da102d1	0.07861865
63	0x3ca1d50b	0.019754907
64	0x3dcb55f6	0.09928505
65	0x3dd61191	0.10452569
66	0x3da31360	0.0796268
67	0xbd2a4bb3	-0.0415761
68	0x3e433421	0.19062854
69	0x3e3d39db	0.18479101
70	0x3df5f160	0.12008929
71	0x3da0f9cf	0.07860147
72	0x3dc7d60f	0.09757625
73	0xbce65036	-0.02811442
74	0x3df05d1c	0.11736509
75	0xbd2bd11c	-0.04194747
76	0xbd4710b7	-0.048599925
77	0x3e21a8a8	0.15786994
78	0x3bae7bf8	0.005324837
79	0xbde6dda6	-0.11272745
80	0x3d4ad3f0	0.049518526
81	0x3dc3d8ea	0.095628574
82	0x3c8258e8	0.015911534
83	0x3de92401	0.1138382
84	0xbd199e24	-0.03750433
85	0x3e0e0aff	0.13871382
86	0x3d7bb712	0.061453886
87	0x3e111795	0.14169152
88	0x3e225f8c	0.1585676
89	0x3dfafddd	0.12255452
90	0x3bb0930f	0.0053886245
91	0xbb8f7180	-0.004377544
92	0x3d9a11de	0.07522939
93	0xbd526170	-0.051362455
94	0xbd22c372	-0.039737172
95	0x3e0d9806	0.13827524
96	0xba2970ef	-0.0006463667
97	0x3ce5f017	0.028068585
98	0x3de66984	0.11250594
99	0xbc0d28f7	-0.008615724
100	0x3df44d1c	0.1192877
101	0xbcb4dc4d	-0.022077704
102	0xbbb0e233	-0.005398059
103	0x3dac1cce	0.084039316
104	0x3d82f2d2	0.063939705
105	0xbb1db0a7	-0.0024061592
106	0xbd938865	-0.072037496
107	0x3d6f4303	0.058413517
108	0xbdbc142c	-0.09183535
109	0x3d77f559	0.060536716
110	0x3e19daa6	0.15024814
111	0x3bb67e60	0.0055692643
112	0xbbb8ab00	-0.005635619
113	0xbdee2cc8	-0.11629635
114	0xbd8de1bb	-0.0692782
115	0x3e444c80	0.19169807
116	0xbde5c1f7	-0.112186365
117	0x3d3b38bc	0.045708403
118	0xbd08057d	-0.03320836
119	0x3d73e73f	0.059546705
120	0x3c96b1dd	0.018395359
121	0x3de03d05	0.109491386
122	0x3d880f36	0.06643526
123	0x3e1dd09a	0.15411606
124	0x3d852faa	0.06503232
125	0xbc2895d3	-0.010289627
126	0x3c02e799	0.0079897875
127	0xbc171d93	-0.00922336
128	0x3bdc6100	0.0067254305
129	0xbb3ca9c0	-0.0028787702
130	0xbd51f898	-0.051262468
131	0xbda69a1c	-0.08134863
132	0xbdb5f148	-0.08883911
133	0xbc60cdd0	-0.0137209445
134	0x3da9dc1a	0.08293934
135	0xbd2cff64	-0.042235747
136	0xbc6e3b50	-0.014540508
137	0x3cd012e8	0.02539964
138	0xbdfb28f8	-0.122636735
139	0x3d0fd22c	0.035112545
140	0xbd3b9894	-0.045799807
141	0x3d8f0b66	0.06984596
142	0x3db42304	0.08795741
143	0x3dc75a2c	0.09733996
144	0xbd63f7e8	-0.055656344
145	0x3d87924a	0.06619699
146	0x3a459f00	0.00075386465
147	0x3da7981c	0.081833094
148	0x3db9a0f8	0.090639055
149	0x3dc02994	0.093829304
150	0xbd239a48	-0.039942056
151	0xbd88213a	-0.066469625
152	0xba6f5600	-0.00091299415
153	0xbdab6200	-0.083683014
154	0xbd7d9120	-0.06190598
155	0x3c9a9510	0.018869907
156	0xbd336764	-0.043799773
157	0x3d8e87fc	0.06959531
158	0x3de992aa	0.11404927
159	0xbdf612d0	-0.12015307
160	0xbd8f32ea	-0.06992133
161	0xbc8264d8	-0.015917227
162	0xbdfd4faa	-0.1236871
163	0xbd673e4c	-0.056455895
164	0x3df821b0	0.121158004
165	0xbd75e178	-0.060029477
166	0x3d4b27d0	0.049598515
167	0xbd8c54bc	-0.06852099
168	0x3ddc5584	0.10758498
169	0xbd8b6224	-0.06805828
170	0xbd8acd46	-0.06777434
171	0x3da6f99e	0.081530795
172	0x3dfbf86e	0.123032436
173	0x3d9a57a0	0.075362444
174	0xbdf839e4	-0.12120417
175	0xbdbd0882	-0.09230138
176	0x3d964734	0.073378
177	0x3d1462e4	0.036227122
178	0xbdead2c2	-0.1146598
179	0xbdddb688	-0.10825831
180	0xbddd4a48	-0.10805184
181	0xb9c70c00	-0.00037965178
182	0xbd216268	-0.03940049
183	0xbdba33aa	-0.090918854
184	0xbbf30100	-0.0074158907
185	0xbd1cf440	-0.038318872
186	0xbda012b2	-0.07816066
187	0xbd8ece9a	-0.06973
188	0xbd781bcc	-0.060573384
189	0xbdde4fac	-0.1085504
190	0x3dd3b560	0.10337329
191	0x3b1b3ac0	0.002368614
192	0x3d06cc63	0.032909762
193	0xbcf0a880	-0.029377222
194	0x3dcb095a	0.09913893
195	0x3d2a9f51	0.041655842
196	0x3d9ebad9	0.07750482
197	0xbcbb51c5	-0.02286614
198	0x3de4ae13	0.111660145
199	0x3def52d9	0.11685724
200	0xbd64df4c	-0.055877015
201	0xbded46af	-0.115857475
202	0xbd83496e	-0.0641049
203	0x3c82a7db	0.01594918
204	0xbd8db5e3	-0.06919458
205	0x3bc92e86	0.006139579
206	0xbba31f33	-0.0049780845
207	0xbd8e96a2	-0.06962325
208	0xbddff12d	-0.109346725
209	0xbd8ee1c8	-0.06976658
210	0x3de6fd58	0.1127879
211	0x3ca494cd	0.020090485
212	0x3d1627da	0.0366591
213	0xbc9d0518	-0.019167468
214	0xbd6a8d77	-0.057263818
215	0xbd27b7c6	-0.040946744
216	0xbbecd7c3	-0.0072278692
217	0xbde53db4	-0.111934096
218	0xbda8b5d4	-0.08237806
219	0x3dd9bc29	0.10631592
220	0xbdc6a582	-0.09699537
221	0x3cf49ef9	0.02986096
222	0xbdb9fc04	-0.09081271
223	0xbdaddc3c	-0.08489272
224	0x3dd7728d	0.10519896
225	0xbd5b99fc	-0.053613648
226	0x3df405c9	0.11915166
227	0xbd6276bf	-0.055289026
228	0xbd6fd58b	-0.05855326
229	0xbd588608	-0.052862197
230	0xbc5593e5	-0.013035749
231	0xbd87c21e	-0.06628822
232	0xbcc26197	-0.023728175
233	0x3d909945	0.07060484
234	0xbdde5df6	-0.108577654
235	0xbd4a2b38	-0.049357623
236	0x3d0152a2	0.031572945
237	0x3c384658	0.01124724
238	0x3d7967f0	0.06089014
239	0x3dc85120	0.09781098
240	0x3dc50e98	0.09621924
241	0xbd62ed58	-0.05540213
242	0x3d117da5	0.035520215
243	0x3dbc7522	0.09202029
244	0x3db9c817	0.09071367
245	0xbdaf82d2	-0.08569874
246	0xbdfaec6a	-0.12252124
247	0x3ca1690a	0.019703407
248	0x3af3159d	0.001854587
249	0xbdc8a286	-0.09796624
250	0xbcc57c58	-0.024107143
251	0xbd64e819	-0.055885408
252	0xbddb94eb	-0.10721763
253	0xbd041ac9	-0.032252107
254	0xbdf8ae29	-0.121425934
255	0xbb027900	-0.0019908547

value_net.2.bias f4 [64]
0	0x3e2b1c21	0.16709949
1	0xbc1249c7	-0.008928723
2	0xbdca67ec	-0.09883103
3	0x3dc67ff1	0.09692372
4	0x3e1969c2	0.1498175
5	0x3dbdfba8	0.09276515
6	0xbcd5fe4e	-0.026122238
7	0x3d63d215	0.05562027
8	0xbcf916b3	-0.030406332
9	0x3dc487cd	0.095962144
10	0x3b2c68ee	0.002630766
11	0x3db1a11e	0.08673309
12	0xbc58740d	-0.013211262
13	0x3ddbdcd5	0.1073548
14	0x3b8d1dd7	0.0043065357
15	0xbdb72d7c	-0.08944222
16	0xbde2d3f9	-0.11075587
17	0x3d19b9f1	0.037530843
18	0xbda5c34f	-0.08093893
19	0x3cda4a9e	0.026646908
20	0x3e36835f	0.17823552
21	0xbc414ce0	-0.011798114
22	0xbcd8c910	-0.026463062
23	0x3e1427a9	0.14468254
24	0xbd790f3c	-0.060805544
25	0x3b2b6098	0.0026150104
26	0xbddc7ff6	-0.10766594
27	0x3da32dac	0.079676956
28	0xbca51b30	-0.020154566
29	0x3decb6c7	0.115582995
30	0xbc382e64	-0.011241529
31	0x3ddb64f6	0.10712616
32	0x3d8ce54e	0.06879674
33	0x3de3b330	0.11118162
34	0x3abbc100	0.0014324486
35	0x3de6d58b	0.11271199
36	0x3cbc2d10	0.022970706
37	0x3dce5640	0.10075045
38	0xbde38a30	-0.111103415
39	0x3dfeec3b	0.12447401
40	0x3d40a72c	0.047034428
41	0x3dcb660a	0.09931572
42	0x3dbd42d3	0.09241261
43	0xbd84171e	-0.06449722
44	0xbd17fb73	-0.037105035
45	0xbbb6f4ad	-0.005583367
46	0xbd3edd0c	-0.046597525
47	0xbdbb44ec	-0.09144005
48	0x3d9f4021	0.077759035
49	0x3da43e44	0.08019689
50	0x3dda0e5c	0.1064727
51	0xba9a81a7	-0.0011787907
52	0x3da003cf	0.078132264
53	0x3e0dfd48	0.1386615
54	0x3d8115ad	0.063029625
55	0x3e1e5896	0.1546348
56	0x3dbf0278	0.09326643
57	0x3daf2e56	0.0855376
58	0xbcbfa289	-0.023392932
59	0xbd12704d	-0.03575163
60	0xbde4174e	-0.111372575
61	0x3dc73583	0.097270034
62	0xbd1ef00c	-0.038803145
63	0xbd468c3a	-0.048473574

value_net.4.weight f4 [1, 64]
0	0x3e438b1d	0.19096036
1	0x3e37fd59	0.17967738
2	0x3d6e1220	0.058122754
3	0xbd2cbe28	-0.042173535
4	0x3dfe25f1	0.124095805
5	0x3de9eb24	0.11421803
6	0x3ddefee6	0.10888462
7	0x3d99ea2b	0.07515367
8	0x3db29109	0.087190695
9	0xbd4f91dc	-0.05067621
10	0xbdc59a72	-0.09648599
11	0xbc24630e	-0.010033382
12	0x3e2e206a	0.17004552
13	0x3da75b4a	0.08171709
14	0x3d15799a	0.03649292
15	0xbd065e64	-0.03280486
16	0xbdbb0dcd	-0.09133492
17	0x3e280099	0.16406478
18	0xbce91448	-0.028452054
19	0x3d963646	0.073345706
20	0x3dc4f5d4	0.096172005
21	0xbd452f0c	-0.04814057
22	0x3dde2e3e	0.10848664
23	0x3df89367	0.1213749
24	0x3d600128	0.054688603
25	0x3e4c55f2	0.1995466
26	0x3def2d86	0.11678605
27	0x3d8356bf	0.0641303
28	0x3da57d96	0.08080594
29	0x3d9a202f	0.0752567
30	0x3db4a294	0.08820072
31	0x3dcf42a3	0.10120132
32	0x3e30506f	0.17218183
33	0x3e078b20	0.13236666
34	0x3dd51a8a	0.104054525
35	0x3df857f8	0.12126154
36	0x3ca1afb8	0.01973711
37	0x3e245d9b	0.16051333
38	0xbdf827a3	-0.12116935
39	0x3ddd8e71	0.10818184
40	0x3e38cf97	0.18047939
41	0x3dc35b7e	0.09538935
42	0x3dd6fd3f	0.104975216
43	0xbca62810	-0.020282775
44	0x3e2d78bf	0.16940592
45	0x3e1ef56e	0.15523311
46	0x3d817af4	0.063222796
47	0x3bc5880a	0.00602818
48	0xbd5a4abe	-0.053293936
49	0x3e0eb727	0.13937055
50	0x3e384a22	0.1799703
51	0xbdc05fef	-0.09393298
52	0xbd69f95a	-0.057122566
53	0x3e18ef24	0.14934975
54	0x3cf0fec8	0.029418364
55	0x3e07fe8a	0.13280693
56	0xbdd279d2	-0.10277142
57	0x3e0112f9	0.12604894
58	0x3e0587ce	0.13040087
59	0x3e094abb	0.13407414
60	0x3d5bfca4	0.053707734
61	0x3d6749cc	0.056466863
62	0x3ddc6bd8	0.10762757
63	0x3e069ab6	0.13144955
